{"format": "layers-model", "generatedBy": "keras v2.9.0", "convertedBy": "TensorFlow.js Converter v4.1.0", "modelTopology": {"keras_version": "2.9.0", "backend": "tensorflow", "model_config": {"class_name": "Model", "config": {"name": "ocr_model_v1", "layers": [{"class_name": "InputLayer", "config": {"batch_input_shape": [null, 250, 75, 1], "dtype": "float32", "sparse": false, "ragged": false, "name": "input_data"}, "name": "input_data", "inbound_nodes": []}, {"class_name": "Conv2D", "config": {"name": "Conv1", "trainable": true, "dtype": "float32", "filters": 32, "kernel_size": [3, 3], "strides": [1, 1], "padding": "same", "data_format": "channels_last", "dilation_rate": [1, 1], "groups": 1, "activation": "relu", "use_bias": true, "kernel_initializer": {"class_name": "HeNormal", "config": {"seed": null}}, "bias_initializer": {"class_name": "Zeros", "config": {}}, "kernel_regularizer": null, "bias_regularizer": null, "activity_regularizer": null, "kernel_constraint": null, "bias_constraint": null}, "name": "Conv1", "inbound_nodes": [[["input_data", 0, 0, {}]]]}, {"class_name": "MaxPooling2D", "config": {"name": "pool1", "trainable": true, "dtype": "float32", "pool_size": [2, 2], "padding": "valid", "strides": [2, 2], "data_format": "channels_last"}, "name": "pool1", "inbound_nodes": [[["Conv1", 0, 0, {}]]]}, {"class_name": "Conv2D", "config": {"name": "Conv2", "trainable": true, "dtype": "float32", "filters": 64, "kernel_size": [3, 3], "strides": [1, 1], "padding": "same", "data_format": "channels_last", "dilation_rate": [1, 1], "groups": 1, "activation": "relu", "use_bias": true, "kernel_initializer": {"class_name": "HeNormal", "config": {"seed": null}}, "bias_initializer": {"class_name": "Zeros", "config": {}}, "kernel_regularizer": null, "bias_regularizer": null, "activity_regularizer": null, "kernel_constraint": null, "bias_constraint": null}, "name": "Conv2", "inbound_nodes": [[["pool1", 0, 0, {}]]]}, {"class_name": "MaxPooling2D", "config": {"name": "pool2", "trainable": true, "dtype": "float32", "pool_size": [2, 2], "padding": "valid", "strides": [2, 2], "data_format": "channels_last"}, "name": "pool2", "inbound_nodes": [[["Conv2", 0, 0, {}]]]}, {"class_name": "Reshape", "config": {"name": "reshape", "trainable": true, "dtype": "float32", "target_shape": [62, 1152]}, "name": "reshape", "inbound_nodes": [[["pool2", 0, 0, {}]]]}, {"class_name": "Dense", "config": {"name": "dense1", "trainable": true, "dtype": "float32", "units": 64, "activation": "relu", "use_bias": true, "kernel_initializer": {"class_name": "GlorotUniform", "config": {"seed": null}}, "bias_initializer": {"class_name": "Zeros", "config": {}}, "kernel_regularizer": null, "bias_regularizer": null, "activity_regularizer": null, "kernel_constraint": null, "bias_constraint": null}, "name": "dense1", "inbound_nodes": [[["reshape", 0, 0, {}]]]}, {"class_name": "Dropout", "config": {"name": "dropout_4", "trainable": true, "dtype": "float32", "rate": 0.2, "noise_shape": null, "seed": null}, "name": "dropout_4", "inbound_nodes": [[["dense1", 0, 0, {}]]]}, {"class_name": "Bidirectional", "config": {"name": "bidirectional_8", "trainable": true, "dtype": "float32", "layer": {"class_name": "LSTM", "config": {"name": "lstm_8", "trainable": true, "dtype": "float32", "return_sequences": true, "return_state": false, "go_backwards": false, "stateful": false, "unroll": false, "time_major": false, "units": 128, "activation": "tanh", "recurrent_activation": "sigmoid", "use_bias": true, "kernel_initializer": {"class_name": "GlorotUniform", "config": {"seed": null}, "shared_object_id": 14}, "recurrent_initializer": {"class_name": "Orthogonal", "config": {"gain": 1.0, "seed": null}, "shared_object_id": 15}, "bias_initializer": {"class_name": "Zeros", "config": {}, "shared_object_id": 16}, "unit_forget_bias": true, "kernel_regularizer": null, "recurrent_regularizer": null, "bias_regularizer": null, "activity_regularizer": null, "kernel_constraint": null, "recurrent_constraint": null, "bias_constraint": null, "dropout": 0.2, "recurrent_dropout": 0.0, "implementation": 2}}, "merge_mode": "concat"}, "name": "bidirectional_8", "inbound_nodes": [[["dropout_4", 0, 0, {}]]]}, {"class_name": "Bidirectional", "config": {"name": "bidirectional_9", "trainable": true, "dtype": "float32", "layer": {"class_name": "LSTM", "config": {"name": "lstm_9", "trainable": true, "dtype": "float32", "return_sequences": true, "return_state": false, "go_backwards": false, "stateful": false, "unroll": false, "time_major": false, "units": 64, "activation": "tanh", "recurrent_activation": "sigmoid", "use_bias": true, "kernel_initializer": {"class_name": "GlorotUniform", "config": {"seed": null}, "shared_object_id": 20}, "recurrent_initializer": {"class_name": "Orthogonal", "config": {"gain": 1.0, "seed": null}, "shared_object_id": 21}, "bias_initializer": {"class_name": "Zeros", "config": {}, "shared_object_id": 22}, "unit_forget_bias": true, "kernel_regularizer": null, "recurrent_regularizer": null, "bias_regularizer": null, "activity_regularizer": null, "kernel_constraint": null, "recurrent_constraint": null, "bias_constraint": null, "dropout": 0.25, "recurrent_dropout": 0.0, "implementation": 2}}, "merge_mode": "concat"}, "name": "bidirectional_9", "inbound_nodes": [[["bidirectional_8", 0, 0, {}]]]}, {"class_name": "InputLayer", "config": {"batch_input_shape": [null, 5], "dtype": "float32", "sparse": false, "ragged": false, "name": "input_label"}, "name": "input_label", "inbound_nodes": []}, {"class_name": "Dense", "config": {"name": "dense2", "trainable": true, "dtype": "float32", "units": 24, "activation": "softmax", "use_bias": true, "kernel_initializer": {"class_name": "HeNormal", "config": {"seed": null}}, "bias_initializer": {"class_name": "Zeros", "config": {}}, "kernel_regularizer": null, "bias_regularizer": null, "activity_regularizer": null, "kernel_constraint": null, "bias_constraint": null}, "name": "dense2", "inbound_nodes": [[["bidirectional_9", 0, 0, {}]]]}, {"class_name": "InputLayer", "config": {"batch_input_shape": [null, 1], "dtype": "int64", "sparse": false, "ragged": false, "name": "input_length"}, "name": "input_length", "inbound_nodes": []}, {"class_name": "InputLayer", "config": {"batch_input_shape": [null, 1], "dtype": "int64", "sparse": false, "ragged": false, "name": "label_length"}, "name": "label_length", "inbound_nodes": []}, {"class_name": "CTCLayer", "config": {"name": "ctc_loss", "trainable": true, "dtype": "float32"}, "name": "ctc_loss", "inbound_nodes": [[["input_label", 0, 0, {"y_pred": ["dense2", 0, 0], "input_length": ["input_length", 0, 0], "label_length": ["label_length", 0, 0]}]]]}], "input_layers": [["input_data", 0, 0], ["input_label", 0, 0], ["input_length", 0, 0], ["label_length", 0, 0]], "output_layers": [["ctc_loss", 0, 0]]}}, "training_config": {"loss": null, "metrics": null, "weighted_metrics": null, "loss_weights": null, "optimizer_config": {"class_name": "SGD", "config": {"name": "SGD", "clipnorm": 5, "learning_rate": 0.0020000000949949026, "decay": 1e-06, "momentum": 0.8999999761581421, "nesterov": true}}}}, "weightsManifest": [{"paths": ["group1-shard1of1.bin"], "weights": [{"name": "Conv1/kernel", "shape": [3, 3, 1, 32], "dtype": "float32"}, {"name": "Conv1/bias", "shape": [32], "dtype": "float32"}, {"name": "Conv2/kernel", "shape": [3, 3, 32, 64], "dtype": "float32"}, {"name": "Conv2/bias", "shape": [64], "dtype": "float32"}, {"name": "bidirectional_8/forward_lstm_8/lstm_cell_25/kernel", "shape": [64, 512], "dtype": "float32"}, {"name": "bidirectional_8/forward_lstm_8/lstm_cell_25/recurrent_kernel", "shape": [128, 512], "dtype": "float32"}, {"name": "bidirectional_8/forward_lstm_8/lstm_cell_25/bias", "shape": [512], "dtype": "float32"}, {"name": "bidirectional_8/backward_lstm_8/lstm_cell_26/kernel", "shape": [64, 512], "dtype": "float32"}, {"name": "bidirectional_8/backward_lstm_8/lstm_cell_26/recurrent_kernel", "shape": [128, 512], "dtype": "float32"}, {"name": "bidirectional_8/backward_lstm_8/lstm_cell_26/bias", "shape": [512], "dtype": "float32"}, {"name": "bidirectional_9/forward_lstm_9/lstm_cell_28/kernel", "shape": [256, 256], "dtype": "float32"}, {"name": "bidirectional_9/forward_lstm_9/lstm_cell_28/recurrent_kernel", "shape": [64, 256], "dtype": "float32"}, {"name": "bidirectional_9/forward_lstm_9/lstm_cell_28/bias", "shape": [256], "dtype": "float32"}, {"name": "bidirectional_9/backward_lstm_9/lstm_cell_29/kernel", "shape": [256, 256], "dtype": "float32"}, {"name": "bidirectional_9/backward_lstm_9/lstm_cell_29/recurrent_kernel", "shape": [64, 256], "dtype": "float32"}, {"name": "bidirectional_9/backward_lstm_9/lstm_cell_29/bias", "shape": [256], "dtype": "float32"}, {"name": "dense1/kernel", "shape": [1152, 64], "dtype": "float32"}, {"name": "dense1/bias", "shape": [64], "dtype": "float32"}, {"name": "dense2/kernel", "shape": [128, 24], "dtype": "float32"}, {"name": "dense2/bias", "shape": [24], "dtype": "float32"}]}]}