{"format": "graph-model", "generatedBy": "2.11.0", "convertedBy": "TensorFlow.js Converter v4.1.0", "signature": {"inputs": {"input_data": {"name": "input_data:0", "dtype": "DT_FLOAT", "tensorShape": {"dim": [{"size": "-1"}, {"size": "250"}, {"size": "75"}, {"size": "1"}]}}}, "outputs": {"dense2": {"name": "Identity:0", "dtype": "DT_FLOAT", "tensorShape": {"dim": [{"size": "-1"}, {"size": "62"}, {"size": "24"}]}}}}, "modelTopology": {"node": [{"name": "StatefulPartitionedCall/model_1/dense2/Tensordot/Const", "op": "Const", "attr": {"dtype": {"type": "DT_INT32"}, "value": {"tensor": {"dtype": "DT_INT32", "tensorShape": {"dim": [{"size": "1"}]}}}}}, {"name": "StatefulPartitionedCall/model_1/dense2/Tensordot/axes", "op": "Const", "attr": {"value": {"tensor": {"dtype": "DT_INT32", "tensorShape": {"dim": [{"size": "1"}]}}}, "dtype": {"type": "DT_INT32"}}}, {"name": "StatefulPartitionedCall/model_1/dense2/Tensordot/GatherV2_1/axis", "op": "Const", "attr": {"value": {"tensor": {"dtype": "DT_INT32", "tensorShape": {}}}, "dtype": {"type": "DT_INT32"}}}, {"name": "StatefulPartitionedCall/model_1/dense2/Tensordot/Const_1", "op": "Const", "attr": {"value": {"tensor": {"dtype": "DT_INT32", "tensorShape": {"dim": [{"size": "1"}]}}}, "dtype": {"type": "DT_INT32"}}}, {"name": "StatefulPartitionedCall/model_1/dense2/Tensordot/ReadVariableOp", "op": "Const", "attr": {"dtype": {"type": "DT_FLOAT"}, "value": {"tensor": {"dtype": "DT_FLOAT", "tensorShape": {"dim": [{"size": "128"}, {"size": "24"}]}}}}}, {"name": "StatefulPartitionedCall/model_1/bidirectional_9/forward_lstm_9/PartitionedCall/TensorArrayV2_1/element_shape", "op": "Const", "attr": {"dtype": {"type": "DT_INT32"}, "value": {"tensor": {"dtype": "DT_INT32", "tensorShape": {"dim": [{"size": "2"}]}}}}}, {"name": "StatefulPartitionedCall/model_1/bidirectional_9/forward_lstm_9/zeros_1/packed/1", "op": "Const", "attr": {"dtype": {"type": "DT_INT32"}, "value": {"tensor": {"dtype": "DT_INT32", "tensorShape": {}}}}}, {"name": "StatefulPartitionedCall/model_1/bidirectional_9/forward_lstm_9/zeros_1/Const", "op": "Const", "attr": {"value": {"tensor": {"dtype": "DT_FLOAT", "tensorShape": {}}}, "dtype": {"type": "DT_FLOAT"}}}, {"name": "StatefulPartitionedCall/model_1/bidirectional_9/forward_lstm_9/PartitionedCall/TensorArrayUnstack/TensorListFromTensor/element_shape", "op": "Const", "attr": {"value": {"tensor": {"dtype": "DT_INT32", "tensorShape": {"dim": [{"size": "2"}]}}}, "dtype": {"type": "DT_INT32"}}}, {"name": "StatefulPartitionedCall/model_1/bidirectional_9/forward_lstm_9/Read/ReadVariableOp", "op": "Const", "attr": {"value": {"tensor": {"dtype": "DT_FLOAT", "tensorShape": {"dim": [{"size": "256"}, {"size": "256"}]}}}, "dtype": {"type": "DT_FLOAT"}}}, {"name": "StatefulPartitionedCall/model_1/bidirectional_9/forward_lstm_9/strided_slice/stack", "op": "Const", "attr": {"dtype": {"type": "DT_INT32"}, "value": {"tensor": {"dtype": "DT_INT32", "tensorShape": {"dim": [{"size": "1"}]}}}}}, {"name": "StatefulPartitionedCall/model_1/bidirectional_9/forward_lstm_9/strided_slice/stack_1", "op": "Const", "attr": {"value": {"tensor": {"dtype": "DT_INT32", "tensorShape": {"dim": [{"size": "1"}]}}}, "dtype": {"type": "DT_INT32"}}}, {"name": "StatefulPartitionedCall/model_1/bidirectional_9/forward_lstm_9/strided_slice/stack_2", "op": "Const", "attr": {"dtype": {"type": "DT_INT32"}, "value": {"tensor": {"dtype": "DT_INT32", "tensorShape": {"dim": [{"size": "1"}]}}}}}, {"name": "StatefulPartitionedCall/model_1/bidirectional_9/forward_lstm_9/zeros/packed/1", "op": "Const", "attr": {"dtype": {"type": "DT_INT32"}, "value": {"tensor": {"dtype": "DT_INT32", "tensorShape": {}}}}}, {"name": "StatefulPartitionedCall/model_1/bidirectional_9/forward_lstm_9/zeros/Const", "op": "Const", "attr": {"value": {"tensor": {"dtype": "DT_FLOAT", "tensorShape": {}}}, "dtype": {"type": "DT_FLOAT"}}}, {"name": "StatefulPartitionedCall/model_1/bidirectional_9/forward_lstm_9/Read_1/ReadVariableOp", "op": "Const", "attr": {"dtype": {"type": "DT_FLOAT"}, "value": {"tensor": {"dtype": "DT_FLOAT", "tensorShape": {"dim": [{"size": "64"}, {"size": "256"}]}}}}}, {"name": "StatefulPartitionedCall/model_1/bidirectional_9/forward_lstm_9/Read_2/ReadVariableOp", "op": "Const", "attr": {"dtype": {"type": "DT_FLOAT"}, "value": {"tensor": {"dtype": "DT_FLOAT", "tensorShape": {"dim": [{"size": "256"}]}}}}}, {"name": "StatefulPartitionedCall/model_1/bidirectional_9/forward_lstm_9/PartitionedCall/time", "op": "Const", "attr": {"value": {"tensor": {"dtype": "DT_INT32", "tensorShape": {}}}, "dtype": {"type": "DT_INT32"}}}, {"name": "StatefulPartitionedCall/model_1/bidirectional_9/forward_lstm_9/PartitionedCall/transpose/perm", "op": "Const", "attr": {"value": {"tensor": {"dtype": "DT_INT32", "tensorShape": {"dim": [{"size": "3"}]}}}, "dtype": {"type": "DT_INT32"}}}, {"name": "StatefulPartitionedCall/model_1/bidirectional_9/forward_lstm_9/PartitionedCall/strided_slice/stack", "op": "Const", "attr": {"value": {"tensor": {"dtype": "DT_INT32", "tensorShape": {"dim": [{"size": "1"}]}}}, "dtype": {"type": "DT_INT32"}}}, {"name": "StatefulPartitionedCall/model_1/bidirectional_9/forward_lstm_9/PartitionedCall/strided_slice/stack_1", "op": "Const", "attr": {"value": {"tensor": {"dtype": "DT_INT32", "tensorShape": {"dim": [{"size": "1"}]}}}, "dtype": {"type": "DT_INT32"}}}, {"name": "StatefulPartitionedCall/model_1/bidirectional_9/forward_lstm_9/PartitionedCall/strided_slice/stack_2", "op": "Const", "attr": {"dtype": {"type": "DT_INT32"}, "value": {"tensor": {"dtype": "DT_INT32", "tensorShape": {"dim": [{"size": "1"}]}}}}}, {"name": "StatefulPartitionedCall/model_1/bidirectional_9/forward_lstm_9/PartitionedCall/while/loop_counter", "op": "Const", "attr": {"value": {"tensor": {"dtype": "DT_INT32", "tensorShape": {}}}, "dtype": {"type": "DT_INT32"}}}, {"name": "StatefulPartitionedCall/model_1/bidirectional_9/forward_lstm_9/PartitionedCall/TensorArrayV2Stack/TensorListStack/element_shape", "op": "Const", "attr": {"dtype": {"type": "DT_INT32"}, "value": {"tensor": {"dtype": "DT_INT32", "tensorShape": {"dim": [{"size": "2"}]}}}}}, {"name": "StatefulPartitionedCall/model_1/bidirectional_9/forward_lstm_9/PartitionedCall/transpose_1/perm", "op": "Const", "attr": {"value": {"tensor": {"dtype": "DT_INT32", "tensorShape": {"dim": [{"size": "3"}]}}}, "dtype": {"type": "DT_INT32"}}}, {"name": "StatefulPartitionedCall/model_1/bidirectional_9/backward_lstm_9/PartitionedCall/TensorArrayV2_1/element_shape", "op": "Const", "attr": {"value": {"tensor": {"dtype": "DT_INT32", "tensorShape": {"dim": [{"size": "2"}]}}}, "dtype": {"type": "DT_INT32"}}}, {"name": "StatefulPartitionedCall/model_1/bidirectional_9/backward_lstm_9/zeros_1/packed/1", "op": "Const", "attr": {"dtype": {"type": "DT_INT32"}, "value": {"tensor": {"dtype": "DT_INT32", "tensorShape": {}}}}}, {"name": "StatefulPartitionedCall/model_1/bidirectional_9/backward_lstm_9/zeros_1/Const", "op": "Const", "attr": {"dtype": {"type": "DT_FLOAT"}, "value": {"tensor": {"dtype": "DT_FLOAT", "tensorShape": {}}}}}, {"name": "StatefulPartitionedCall/model_1/bidirectional_9/backward_lstm_9/PartitionedCall/ReverseV2/axis", "op": "Const", "attr": {"dtype": {"type": "DT_INT32"}, "value": {"tensor": {"dtype": "DT_INT32", "tensorShape": {"dim": [{"size": "1"}]}}}}}, {"name": "StatefulPartitionedCall/model_1/bidirectional_9/backward_lstm_9/PartitionedCall/TensorArrayUnstack/TensorListFromTensor/element_shape", "op": "Const", "attr": {"dtype": {"type": "DT_INT32"}, "value": {"tensor": {"dtype": "DT_INT32", "tensorShape": {"dim": [{"size": "2"}]}}}}}, {"name": "StatefulPartitionedCall/model_1/bidirectional_9/backward_lstm_9/Read/ReadVariableOp", "op": "Const", "attr": {"value": {"tensor": {"dtype": "DT_FLOAT", "tensorShape": {"dim": [{"size": "256"}, {"size": "256"}]}}}, "dtype": {"type": "DT_FLOAT"}}}, {"name": "StatefulPartitionedCall/model_1/bidirectional_9/backward_lstm_9/strided_slice/stack", "op": "Const", "attr": {"value": {"tensor": {"dtype": "DT_INT32", "tensorShape": {"dim": [{"size": "1"}]}}}, "dtype": {"type": "DT_INT32"}}}, {"name": "StatefulPartitionedCall/model_1/bidirectional_9/backward_lstm_9/strided_slice/stack_1", "op": "Const", "attr": {"value": {"tensor": {"dtype": "DT_INT32", "tensorShape": {"dim": [{"size": "1"}]}}}, "dtype": {"type": "DT_INT32"}}}, {"name": "StatefulPartitionedCall/model_1/bidirectional_9/backward_lstm_9/strided_slice/stack_2", "op": "Const", "attr": {"dtype": {"type": "DT_INT32"}, "value": {"tensor": {"dtype": "DT_INT32", "tensorShape": {"dim": [{"size": "1"}]}}}}}, {"name": "StatefulPartitionedCall/model_1/bidirectional_9/backward_lstm_9/zeros/packed/1", "op": "Const", "attr": {"value": {"tensor": {"dtype": "DT_INT32", "tensorShape": {}}}, "dtype": {"type": "DT_INT32"}}}, {"name": "StatefulPartitionedCall/model_1/bidirectional_9/backward_lstm_9/zeros/Const", "op": "Const", "attr": {"value": {"tensor": {"dtype": "DT_FLOAT", "tensorShape": {}}}, "dtype": {"type": "DT_FLOAT"}}}, {"name": "StatefulPartitionedCall/model_1/bidirectional_9/backward_lstm_9/Read_1/ReadVariableOp", "op": "Const", "attr": {"dtype": {"type": "DT_FLOAT"}, "value": {"tensor": {"dtype": "DT_FLOAT", "tensorShape": {"dim": [{"size": "64"}, {"size": "256"}]}}}}}, {"name": "StatefulPartitionedCall/model_1/bidirectional_9/backward_lstm_9/Read_2/ReadVariableOp", "op": "Const", "attr": {"value": {"tensor": {"dtype": "DT_FLOAT", "tensorShape": {"dim": [{"size": "256"}]}}}, "dtype": {"type": "DT_FLOAT"}}}, {"name": "StatefulPartitionedCall/model_1/bidirectional_9/backward_lstm_9/PartitionedCall/time", "op": "Const", "attr": {"value": {"tensor": {"dtype": "DT_INT32", "tensorShape": {}}}, "dtype": {"type": "DT_INT32"}}}, {"name": "StatefulPartitionedCall/model_1/bidirectional_8/forward_lstm_8/PartitionedCall/TensorArrayV2_1/element_shape", "op": "Const", "attr": {"value": {"tensor": {"dtype": "DT_INT32", "tensorShape": {"dim": [{"size": "2"}]}}}, "dtype": {"type": "DT_INT32"}}}, {"name": "StatefulPartitionedCall/model_1/bidirectional_8/forward_lstm_8/zeros_1/packed/1", "op": "Const", "attr": {"dtype": {"type": "DT_INT32"}, "value": {"tensor": {"dtype": "DT_INT32", "tensorShape": {}}}}}, {"name": "StatefulPartitionedCall/model_1/bidirectional_8/forward_lstm_8/zeros_1/Const", "op": "Const", "attr": {"value": {"tensor": {"dtype": "DT_FLOAT", "tensorShape": {}}}, "dtype": {"type": "DT_FLOAT"}}}, {"name": "StatefulPartitionedCall/model_1/bidirectional_8/forward_lstm_8/PartitionedCall/TensorArrayUnstack/TensorListFromTensor/element_shape", "op": "Const", "attr": {"dtype": {"type": "DT_INT32"}, "value": {"tensor": {"dtype": "DT_INT32", "tensorShape": {"dim": [{"size": "2"}]}}}}}, {"name": "StatefulPartitionedCall/model_1/bidirectional_8/forward_lstm_8/Read/ReadVariableOp", "op": "Const", "attr": {"dtype": {"type": "DT_FLOAT"}, "value": {"tensor": {"dtype": "DT_FLOAT", "tensorShape": {"dim": [{"size": "64"}, {"size": "512"}]}}}}}, {"name": "StatefulPartitionedCall/model_1/bidirectional_8/forward_lstm_8/strided_slice/stack", "op": "Const", "attr": {"dtype": {"type": "DT_INT32"}, "value": {"tensor": {"dtype": "DT_INT32", "tensorShape": {"dim": [{"size": "1"}]}}}}}, {"name": "StatefulPartitionedCall/model_1/bidirectional_8/forward_lstm_8/strided_slice/stack_1", "op": "Const", "attr": {"dtype": {"type": "DT_INT32"}, "value": {"tensor": {"dtype": "DT_INT32", "tensorShape": {"dim": [{"size": "1"}]}}}}}, {"name": "StatefulPartitionedCall/model_1/bidirectional_8/forward_lstm_8/strided_slice/stack_2", "op": "Const", "attr": {"dtype": {"type": "DT_INT32"}, "value": {"tensor": {"dtype": "DT_INT32", "tensorShape": {"dim": [{"size": "1"}]}}}}}, {"name": "StatefulPartitionedCall/model_1/bidirectional_8/forward_lstm_8/zeros/packed/1", "op": "Const", "attr": {"value": {"tensor": {"dtype": "DT_INT32", "tensorShape": {}}}, "dtype": {"type": "DT_INT32"}}}, {"name": "StatefulPartitionedCall/model_1/bidirectional_8/forward_lstm_8/zeros/Const", "op": "Const", "attr": {"dtype": {"type": "DT_FLOAT"}, "value": {"tensor": {"dtype": "DT_FLOAT", "tensorShape": {}}}}}, {"name": "StatefulPartitionedCall/model_1/bidirectional_8/forward_lstm_8/Read_1/ReadVariableOp", "op": "Const", "attr": {"value": {"tensor": {"dtype": "DT_FLOAT", "tensorShape": {"dim": [{"size": "128"}, {"size": "512"}]}}}, "dtype": {"type": "DT_FLOAT"}}}, {"name": "StatefulPartitionedCall/model_1/bidirectional_8/forward_lstm_8/Read_2/ReadVariableOp", "op": "Const", "attr": {"dtype": {"type": "DT_FLOAT"}, "value": {"tensor": {"dtype": "DT_FLOAT", "tensorShape": {"dim": [{"size": "512"}]}}}}}, {"name": "StatefulPartitionedCall/model_1/bidirectional_8/forward_lstm_8/PartitionedCall/time", "op": "Const", "attr": {"dtype": {"type": "DT_INT32"}, "value": {"tensor": {"dtype": "DT_INT32", "tensorShape": {}}}}}, {"name": "StatefulPartitionedCall/model_1/bidirectional_8/forward_lstm_8/PartitionedCall/transpose/perm", "op": "Const", "attr": {"value": {"tensor": {"dtype": "DT_INT32", "tensorShape": {"dim": [{"size": "3"}]}}}, "dtype": {"type": "DT_INT32"}}}, {"name": "StatefulPartitionedCall/model_1/bidirectional_8/forward_lstm_8/PartitionedCall/strided_slice/stack", "op": "Const", "attr": {"value": {"tensor": {"dtype": "DT_INT32", "tensorShape": {"dim": [{"size": "1"}]}}}, "dtype": {"type": "DT_INT32"}}}, {"name": "StatefulPartitionedCall/model_1/bidirectional_8/forward_lstm_8/PartitionedCall/strided_slice/stack_1", "op": "Const", "attr": {"value": {"tensor": {"dtype": "DT_INT32", "tensorShape": {"dim": [{"size": "1"}]}}}, "dtype": {"type": "DT_INT32"}}}, {"name": "StatefulPartitionedCall/model_1/bidirectional_8/forward_lstm_8/PartitionedCall/strided_slice/stack_2", "op": "Const", "attr": {"dtype": {"type": "DT_INT32"}, "value": {"tensor": {"dtype": "DT_INT32", "tensorShape": {"dim": [{"size": "1"}]}}}}}, {"name": "StatefulPartitionedCall/model_1/bidirectional_8/forward_lstm_8/PartitionedCall/while/loop_counter", "op": "Const", "attr": {"dtype": {"type": "DT_INT32"}, "value": {"tensor": {"dtype": "DT_INT32", "tensorShape": {}}}}}, {"name": "StatefulPartitionedCall/model_1/bidirectional_8/forward_lstm_8/PartitionedCall/TensorArrayV2Stack/TensorListStack/element_shape", "op": "Const", "attr": {"dtype": {"type": "DT_INT32"}, "value": {"tensor": {"dtype": "DT_INT32", "tensorShape": {"dim": [{"size": "2"}]}}}}}, {"name": "StatefulPartitionedCall/model_1/bidirectional_8/forward_lstm_8/PartitionedCall/transpose_1/perm", "op": "Const", "attr": {"dtype": {"type": "DT_INT32"}, "value": {"tensor": {"dtype": "DT_INT32", "tensorShape": {"dim": [{"size": "3"}]}}}}}, {"name": "StatefulPartitionedCall/model_1/bidirectional_8/backward_lstm_8/PartitionedCall/TensorArrayV2_1/element_shape", "op": "Const", "attr": {"dtype": {"type": "DT_INT32"}, "value": {"tensor": {"dtype": "DT_INT32", "tensorShape": {"dim": [{"size": "2"}]}}}}}, {"name": "StatefulPartitionedCall/model_1/bidirectional_8/backward_lstm_8/zeros_1/packed/1", "op": "Const", "attr": {"value": {"tensor": {"dtype": "DT_INT32", "tensorShape": {}}}, "dtype": {"type": "DT_INT32"}}}, {"name": "StatefulPartitionedCall/model_1/bidirectional_8/backward_lstm_8/zeros_1/Const", "op": "Const", "attr": {"value": {"tensor": {"dtype": "DT_FLOAT", "tensorShape": {}}}, "dtype": {"type": "DT_FLOAT"}}}, {"name": "StatefulPartitionedCall/model_1/bidirectional_8/backward_lstm_8/PartitionedCall/ReverseV2/axis", "op": "Const", "attr": {"dtype": {"type": "DT_INT32"}, "value": {"tensor": {"dtype": "DT_INT32", "tensorShape": {"dim": [{"size": "1"}]}}}}}, {"name": "StatefulPartitionedCall/model_1/bidirectional_8/backward_lstm_8/PartitionedCall/TensorArrayUnstack/TensorListFromTensor/element_shape", "op": "Const", "attr": {"value": {"tensor": {"dtype": "DT_INT32", "tensorShape": {"dim": [{"size": "2"}]}}}, "dtype": {"type": "DT_INT32"}}}, {"name": "StatefulPartitionedCall/model_1/bidirectional_8/backward_lstm_8/Read/ReadVariableOp", "op": "Const", "attr": {"value": {"tensor": {"dtype": "DT_FLOAT", "tensorShape": {"dim": [{"size": "64"}, {"size": "512"}]}}}, "dtype": {"type": "DT_FLOAT"}}}, {"name": "StatefulPartitionedCall/model_1/bidirectional_8/backward_lstm_8/strided_slice/stack", "op": "Const", "attr": {"value": {"tensor": {"dtype": "DT_INT32", "tensorShape": {"dim": [{"size": "1"}]}}}, "dtype": {"type": "DT_INT32"}}}, {"name": "StatefulPartitionedCall/model_1/bidirectional_8/backward_lstm_8/strided_slice/stack_1", "op": "Const", "attr": {"dtype": {"type": "DT_INT32"}, "value": {"tensor": {"dtype": "DT_INT32", "tensorShape": {"dim": [{"size": "1"}]}}}}}, {"name": "StatefulPartitionedCall/model_1/bidirectional_8/backward_lstm_8/strided_slice/stack_2", "op": "Const", "attr": {"dtype": {"type": "DT_INT32"}, "value": {"tensor": {"dtype": "DT_INT32", "tensorShape": {"dim": [{"size": "1"}]}}}}}, {"name": "StatefulPartitionedCall/model_1/bidirectional_8/backward_lstm_8/zeros/packed/1", "op": "Const", "attr": {"dtype": {"type": "DT_INT32"}, "value": {"tensor": {"dtype": "DT_INT32", "tensorShape": {}}}}}, {"name": "StatefulPartitionedCall/model_1/bidirectional_8/backward_lstm_8/zeros/Const", "op": "Const", "attr": {"dtype": {"type": "DT_FLOAT"}, "value": {"tensor": {"dtype": "DT_FLOAT", "tensorShape": {}}}}}, {"name": "StatefulPartitionedCall/model_1/bidirectional_8/backward_lstm_8/Read_1/ReadVariableOp", "op": "Const", "attr": {"value": {"tensor": {"dtype": "DT_FLOAT", "tensorShape": {"dim": [{"size": "128"}, {"size": "512"}]}}}, "dtype": {"type": "DT_FLOAT"}}}, {"name": "StatefulPartitionedCall/model_1/bidirectional_8/backward_lstm_8/Read_2/ReadVariableOp", "op": "Const", "attr": {"dtype": {"type": "DT_FLOAT"}, "value": {"tensor": {"dtype": "DT_FLOAT", "tensorShape": {"dim": [{"size": "512"}]}}}}}, {"name": "StatefulPartitionedCall/model_1/bidirectional_8/backward_lstm_8/PartitionedCall/time", "op": "Const", "attr": {"dtype": {"type": "DT_INT32"}, "value": {"tensor": {"dtype": "DT_INT32", "tensorShape": {}}}}}, {"name": "StatefulPartitionedCall/model_1/dense1/Tensordot/Const", "op": "Const", "attr": {"value": {"tensor": {"dtype": "DT_INT32", "tensorShape": {"dim": [{"size": "1"}]}}}, "dtype": {"type": "DT_INT32"}}}, {"name": "StatefulPartitionedCall/model_1/dense1/Tensordot/axes", "op": "Const", "attr": {"value": {"tensor": {"dtype": "DT_INT32", "tensorShape": {"dim": [{"size": "1"}]}}}, "dtype": {"type": "DT_INT32"}}}, {"name": "StatefulPartitionedCall/model_1/dense1/Tensordot/GatherV2_1/axis", "op": "Const", "attr": {"dtype": {"type": "DT_INT32"}, "value": {"tensor": {"dtype": "DT_INT32", "tensorShape": {}}}}}, {"name": "StatefulPartitionedCall/model_1/dense1/Tensordot/Const_1", "op": "Const", "attr": {"dtype": {"type": "DT_INT32"}, "value": {"tensor": {"dtype": "DT_INT32", "tensorShape": {"dim": [{"size": "1"}]}}}}}, {"name": "StatefulPartitionedCall/model_1/dense1/Tensordot/ReadVariableOp", "op": "Const", "attr": {"dtype": {"type": "DT_FLOAT"}, "value": {"tensor": {"dtype": "DT_FLOAT", "tensorShape": {"dim": [{"size": "1152"}, {"size": "64"}]}}}}}, {"name": "StatefulPartitionedCall/model_1/Conv1/Conv2D/ReadVariableOp", "op": "Const", "attr": {"value": {"tensor": {"dtype": "DT_FLOAT", "tensorShape": {"dim": [{"size": "3"}, {"size": "3"}, {"size": "1"}, {"size": "32"}]}}}, "dtype": {"type": "DT_FLOAT"}}}, {"name": "StatefulPartitionedCall/model_1/Conv1/BiasAdd/ReadVariableOp", "op": "Const", "attr": {"dtype": {"type": "DT_FLOAT"}, "value": {"tensor": {"dtype": "DT_FLOAT", "tensorShape": {"dim": [{"size": "32"}]}}}}}, {"name": "StatefulPartitionedCall/model_1/Conv2/Conv2D/ReadVariableOp", "op": "Const", "attr": {"value": {"tensor": {"dtype": "DT_FLOAT", "tensorShape": {"dim": [{"size": "3"}, {"size": "3"}, {"size": "32"}, {"size": "64"}]}}}, "dtype": {"type": "DT_FLOAT"}}}, {"name": "StatefulPartitionedCall/model_1/Conv2/BiasAdd/ReadVariableOp", "op": "Const", "attr": {"value": {"tensor": {"dtype": "DT_FLOAT", "tensorShape": {"dim": [{"size": "64"}]}}}, "dtype": {"type": "DT_FLOAT"}}}, {"name": "StatefulPartitionedCall/model_1/reshape/strided_slice/stack", "op": "Const", "attr": {"value": {"tensor": {"dtype": "DT_INT32", "tensorShape": {"dim": [{"size": "1"}]}}}, "dtype": {"type": "DT_INT32"}}}, {"name": "StatefulPartitionedCall/model_1/reshape/strided_slice/stack_1", "op": "Const", "attr": {"value": {"tensor": {"dtype": "DT_INT32", "tensorShape": {"dim": [{"size": "1"}]}}}, "dtype": {"type": "DT_INT32"}}}, {"name": "StatefulPartitionedCall/model_1/reshape/strided_slice/stack_2", "op": "Const", "attr": {"dtype": {"type": "DT_INT32"}, "value": {"tensor": {"dtype": "DT_INT32", "tensorShape": {"dim": [{"size": "1"}]}}}}}, {"name": "StatefulPartitionedCall/model_1/reshape/Reshape/shape/1", "op": "Const", "attr": {"value": {"tensor": {"dtype": "DT_INT32", "tensorShape": {}}}, "dtype": {"type": "DT_INT32"}}}, {"name": "StatefulPartitionedCall/model_1/reshape/Reshape/shape/2", "op": "Const", "attr": {"value": {"tensor": {"dtype": "DT_INT32", "tensorShape": {}}}, "dtype": {"type": "DT_INT32"}}}, {"name": "StatefulPartitionedCall/model_1/dense1/Tensordot/free", "op": "Const", "attr": {"dtype": {"type": "DT_INT32"}, "value": {"tensor": {"dtype": "DT_INT32", "tensorShape": {"dim": [{"size": "2"}]}}}}}, {"name": "StatefulPartitionedCall/model_1/dense1/Tensordot/GatherV2/axis", "op": "Const", "attr": {"value": {"tensor": {"dtype": "DT_INT32", "tensorShape": {}}}, "dtype": {"type": "DT_INT32"}}}, {"name": "StatefulPartitionedCall/model_1/dense1/Tensordot/Const_2", "op": "Const", "attr": {"value": {"tensor": {"dtype": "DT_INT32", "tensorShape": {"dim": [{"size": "1"}]}}}, "dtype": {"type": "DT_INT32"}}}, {"name": "StatefulPartitionedCall/model_1/dense1/Tensordot/concat_1/axis", "op": "Const", "attr": {"value": {"tensor": {"dtype": "DT_INT32", "tensorShape": {}}}, "dtype": {"type": "DT_INT32"}}}, {"name": "StatefulPartitionedCall/model_1/dense1/BiasAdd/ReadVariableOp", "op": "Const", "attr": {"dtype": {"type": "DT_FLOAT"}, "value": {"tensor": {"dtype": "DT_FLOAT", "tensorShape": {"dim": [{"size": "64"}]}}}}}, {"name": "StatefulPartitionedCall/model_1/bidirectional_8/backward_lstm_8/PartitionedCall/transpose/perm", "op": "Const", "attr": {"value": {"tensor": {"dtype": "DT_INT32", "tensorShape": {"dim": [{"size": "3"}]}}}, "dtype": {"type": "DT_INT32"}}}, {"name": "StatefulPartitionedCall/model_1/bidirectional_8/backward_lstm_8/PartitionedCall/strided_slice/stack", "op": "Const", "attr": {"dtype": {"type": "DT_INT32"}, "value": {"tensor": {"dtype": "DT_INT32", "tensorShape": {"dim": [{"size": "1"}]}}}}}, {"name": "StatefulPartitionedCall/model_1/bidirectional_8/backward_lstm_8/PartitionedCall/strided_slice/stack_1", "op": "Const", "attr": {"dtype": {"type": "DT_INT32"}, "value": {"tensor": {"dtype": "DT_INT32", "tensorShape": {"dim": [{"size": "1"}]}}}}}, {"name": "StatefulPartitionedCall/model_1/bidirectional_8/backward_lstm_8/PartitionedCall/strided_slice/stack_2", "op": "Const", "attr": {"value": {"tensor": {"dtype": "DT_INT32", "tensorShape": {"dim": [{"size": "1"}]}}}, "dtype": {"type": "DT_INT32"}}}, {"name": "StatefulPartitionedCall/model_1/bidirectional_8/backward_lstm_8/PartitionedCall/while/loop_counter", "op": "Const", "attr": {"value": {"tensor": {"dtype": "DT_INT32", "tensorShape": {}}}, "dtype": {"type": "DT_INT32"}}}, {"name": "StatefulPartitionedCall/model_1/bidirectional_8/backward_lstm_8/PartitionedCall/TensorArrayV2Stack/TensorListStack/element_shape", "op": "Const", "attr": {"value": {"tensor": {"dtype": "DT_INT32", "tensorShape": {"dim": [{"size": "2"}]}}}, "dtype": {"type": "DT_INT32"}}}, {"name": "StatefulPartitionedCall/model_1/bidirectional_8/backward_lstm_8/PartitionedCall/transpose_1/perm", "op": "Const", "attr": {"dtype": {"type": "DT_INT32"}, "value": {"tensor": {"dtype": "DT_INT32", "tensorShape": {"dim": [{"size": "3"}]}}}}}, {"name": "StatefulPartitionedCall/model_1/bidirectional_8/ReverseV2/axis", "op": "Const", "attr": {"dtype": {"type": "DT_INT32"}, "value": {"tensor": {"dtype": "DT_INT32", "tensorShape": {"dim": [{"size": "1"}]}}}}}, {"name": "StatefulPartitionedCall/model_1/bidirectional_8/concat/axis", "op": "Const", "attr": {"dtype": {"type": "DT_INT32"}, "value": {"tensor": {"dtype": "DT_INT32", "tensorShape": {}}}}}, {"name": "StatefulPartitionedCall/model_1/bidirectional_9/backward_lstm_9/PartitionedCall/transpose/perm", "op": "Const", "attr": {"value": {"tensor": {"dtype": "DT_INT32", "tensorShape": {"dim": [{"size": "3"}]}}}, "dtype": {"type": "DT_INT32"}}}, {"name": "StatefulPartitionedCall/model_1/bidirectional_9/backward_lstm_9/PartitionedCall/strided_slice/stack", "op": "Const", "attr": {"dtype": {"type": "DT_INT32"}, "value": {"tensor": {"dtype": "DT_INT32", "tensorShape": {"dim": [{"size": "1"}]}}}}}, {"name": "StatefulPartitionedCall/model_1/bidirectional_9/backward_lstm_9/PartitionedCall/strided_slice/stack_1", "op": "Const", "attr": {"value": {"tensor": {"dtype": "DT_INT32", "tensorShape": {"dim": [{"size": "1"}]}}}, "dtype": {"type": "DT_INT32"}}}, {"name": "StatefulPartitionedCall/model_1/bidirectional_9/backward_lstm_9/PartitionedCall/strided_slice/stack_2", "op": "Const", "attr": {"value": {"tensor": {"dtype": "DT_INT32", "tensorShape": {"dim": [{"size": "1"}]}}}, "dtype": {"type": "DT_INT32"}}}, {"name": "StatefulPartitionedCall/model_1/bidirectional_9/backward_lstm_9/PartitionedCall/while/loop_counter", "op": "Const", "attr": {"dtype": {"type": "DT_INT32"}, "value": {"tensor": {"dtype": "DT_INT32", "tensorShape": {}}}}}, {"name": "StatefulPartitionedCall/model_1/bidirectional_9/backward_lstm_9/PartitionedCall/TensorArrayV2Stack/TensorListStack/element_shape", "op": "Const", "attr": {"dtype": {"type": "DT_INT32"}, "value": {"tensor": {"dtype": "DT_INT32", "tensorShape": {"dim": [{"size": "2"}]}}}}}, {"name": "StatefulPartitionedCall/model_1/bidirectional_9/backward_lstm_9/PartitionedCall/transpose_1/perm", "op": "Const", "attr": {"dtype": {"type": "DT_INT32"}, "value": {"tensor": {"dtype": "DT_INT32", "tensorShape": {"dim": [{"size": "3"}]}}}}}, {"name": "StatefulPartitionedCall/model_1/bidirectional_9/ReverseV2/axis", "op": "Const", "attr": {"dtype": {"type": "DT_INT32"}, "value": {"tensor": {"dtype": "DT_INT32", "tensorShape": {"dim": [{"size": "1"}]}}}}}, {"name": "StatefulPartitionedCall/model_1/bidirectional_9/concat/axis", "op": "Const", "attr": {"dtype": {"type": "DT_INT32"}, "value": {"tensor": {"dtype": "DT_INT32", "tensorShape": {}}}}}, {"name": "StatefulPartitionedCall/model_1/dense2/Tensordot/free", "op": "Const", "attr": {"dtype": {"type": "DT_INT32"}, "value": {"tensor": {"dtype": "DT_INT32", "tensorShape": {"dim": [{"size": "2"}]}}}}}, {"name": "StatefulPartitionedCall/model_1/dense2/Tensordot/GatherV2/axis", "op": "Const", "attr": {"value": {"tensor": {"dtype": "DT_INT32", "tensorShape": {}}}, "dtype": {"type": "DT_INT32"}}}, {"name": "StatefulPartitionedCall/model_1/dense2/Tensordot/Const_2", "op": "Const", "attr": {"dtype": {"type": "DT_INT32"}, "value": {"tensor": {"dtype": "DT_INT32", "tensorShape": {"dim": [{"size": "1"}]}}}}}, {"name": "StatefulPartitionedCall/model_1/dense2/Tensordot/concat_1/axis", "op": "Const", "attr": {"dtype": {"type": "DT_INT32"}, "value": {"tensor": {"dtype": "DT_INT32", "tensorShape": {}}}}}, {"name": "StatefulPartitionedCall/model_1/dense2/BiasAdd/ReadVariableOp", "op": "Const", "attr": {"value": {"tensor": {"dtype": "DT_FLOAT", "tensorShape": {"dim": [{"size": "24"}]}}}, "dtype": {"type": "DT_FLOAT"}}}, {"name": "input_data", "op": "Placeholder", "attr": {"shape": {"shape": {"dim": [{"size": "-1"}, {"size": "250"}, {"size": "75"}, {"size": "1"}]}}, "dtype": {"type": "DT_FLOAT"}}}, {"name": "StatefulPartitionedCall/model_1/bidirectional_9/forward_lstm_9/PartitionedCall/while/enter/_197", "op": "Enter", "input": ["StatefulPartitionedCall/model_1/bidirectional_9/forward_lstm_9/Read/ReadVariableOp"], "attr": {"T": {"type": "DT_FLOAT"}, "parallel_iterations": {"i": "32"}, "is_constant": {"b": false}, "frame_name": {"s": "U3RhdGVmdWxQYXJ0aXRpb25lZENhbGwvbW9kZWxfMS9iaWRpcmVjdGlvbmFsXzkvZm9yd2FyZF9sc3RtXzkvUGFydGl0aW9uZWRDYWxsL3doaWxl"}}}, {"name": "StatefulPartitionedCall/model_1/bidirectional_9/forward_lstm_9/PartitionedCall/while/enter/_198", "op": "Enter", "input": ["StatefulPartitionedCall/model_1/bidirectional_9/forward_lstm_9/Read_1/ReadVariableOp"], "attr": {"frame_name": {"s": "U3RhdGVmdWxQYXJ0aXRpb25lZENhbGwvbW9kZWxfMS9iaWRpcmVjdGlvbmFsXzkvZm9yd2FyZF9sc3RtXzkvUGFydGl0aW9uZWRDYWxsL3doaWxl"}, "T": {"type": "DT_FLOAT"}, "is_constant": {"b": false}, "parallel_iterations": {"i": "32"}}}, {"name": "StatefulPartitionedCall/model_1/bidirectional_9/forward_lstm_9/PartitionedCall/while/enter/_199", "op": "Enter", "input": ["StatefulPartitionedCall/model_1/bidirectional_9/forward_lstm_9/Read_2/ReadVariableOp"], "attr": {"T": {"type": "DT_FLOAT"}, "parallel_iterations": {"i": "32"}, "is_constant": {"b": false}, "frame_name": {"s": "U3RhdGVmdWxQYXJ0aXRpb25lZENhbGwvbW9kZWxfMS9iaWRpcmVjdGlvbmFsXzkvZm9yd2FyZF9sc3RtXzkvUGFydGl0aW9uZWRDYWxsL3doaWxl"}}}, {"name": "StatefulPartitionedCall/model_1/bidirectional_9/forward_lstm_9/PartitionedCall/while/enter/_191", "op": "Enter", "input": ["StatefulPartitionedCall/model_1/bidirectional_9/forward_lstm_9/PartitionedCall/time"], "attr": {"frame_name": {"s": "U3RhdGVmdWxQYXJ0aXRpb25lZENhbGwvbW9kZWxfMS9iaWRpcmVjdGlvbmFsXzkvZm9yd2FyZF9sc3RtXzkvUGFydGl0aW9uZWRDYWxsL3doaWxl"}, "parallel_iterations": {"i": "32"}, "is_constant": {"b": false}, "T": {"type": "DT_INT32"}}}, {"name": "StatefulPartitionedCall/model_1/bidirectional_9/forward_lstm_9/PartitionedCall/while/enter/_189", "op": "Enter", "input": ["StatefulPartitionedCall/model_1/bidirectional_9/forward_lstm_9/PartitionedCall/while/loop_counter"], "attr": {"frame_name": {"s": "U3RhdGVmdWxQYXJ0aXRpb25lZENhbGwvbW9kZWxfMS9iaWRpcmVjdGlvbmFsXzkvZm9yd2FyZF9sc3RtXzkvUGFydGl0aW9uZWRDYWxsL3doaWxl"}, "parallel_iterations": {"i": "32"}, "is_constant": {"b": false}, "T": {"type": "DT_INT32"}}}, {"name": "StatefulPartitionedCall/model_1/bidirectional_9/backward_lstm_9/PartitionedCall/while/enter/_257", "op": "Enter", "input": ["StatefulPartitionedCall/model_1/bidirectional_9/backward_lstm_9/Read/ReadVariableOp"], "attr": {"T": {"type": "DT_FLOAT"}, "parallel_iterations": {"i": "32"}, "is_constant": {"b": false}, "frame_name": {"s": "U3RhdGVmdWxQYXJ0aXRpb25lZENhbGwvbW9kZWxfMS9iaWRpcmVjdGlvbmFsXzkvYmFja3dhcmRfbHN0bV85L1BhcnRpdGlvbmVkQ2FsbC93aGlsZQ=="}}}, {"name": "StatefulPartitionedCall/model_1/bidirectional_9/backward_lstm_9/PartitionedCall/while/enter/_258", "op": "Enter", "input": ["StatefulPartitionedCall/model_1/bidirectional_9/backward_lstm_9/Read_1/ReadVariableOp"], "attr": {"frame_name": {"s": "U3RhdGVmdWxQYXJ0aXRpb25lZENhbGwvbW9kZWxfMS9iaWRpcmVjdGlvbmFsXzkvYmFja3dhcmRfbHN0bV85L1BhcnRpdGlvbmVkQ2FsbC93aGlsZQ=="}, "parallel_iterations": {"i": "32"}, "is_constant": {"b": false}, "T": {"type": "DT_FLOAT"}}}, {"name": "StatefulPartitionedCall/model_1/bidirectional_9/backward_lstm_9/PartitionedCall/while/enter/_259", "op": "Enter", "input": ["StatefulPartitionedCall/model_1/bidirectional_9/backward_lstm_9/Read_2/ReadVariableOp"], "attr": {"is_constant": {"b": false}, "parallel_iterations": {"i": "32"}, "frame_name": {"s": "U3RhdGVmdWxQYXJ0aXRpb25lZENhbGwvbW9kZWxfMS9iaWRpcmVjdGlvbmFsXzkvYmFja3dhcmRfbHN0bV85L1BhcnRpdGlvbmVkQ2FsbC93aGlsZQ=="}, "T": {"type": "DT_FLOAT"}}}, {"name": "StatefulPartitionedCall/model_1/bidirectional_9/backward_lstm_9/PartitionedCall/while/enter/_251", "op": "Enter", "input": ["StatefulPartitionedCall/model_1/bidirectional_9/backward_lstm_9/PartitionedCall/time"], "attr": {"parallel_iterations": {"i": "32"}, "is_constant": {"b": false}, "frame_name": {"s": "U3RhdGVmdWxQYXJ0aXRpb25lZENhbGwvbW9kZWxfMS9iaWRpcmVjdGlvbmFsXzkvYmFja3dhcmRfbHN0bV85L1BhcnRpdGlvbmVkQ2FsbC93aGlsZQ=="}, "T": {"type": "DT_INT32"}}}, {"name": "StatefulPartitionedCall/model_1/bidirectional_8/forward_lstm_8/PartitionedCall/while/enter/_77", "op": "Enter", "input": ["StatefulPartitionedCall/model_1/bidirectional_8/forward_lstm_8/Read/ReadVariableOp"], "attr": {"T": {"type": "DT_FLOAT"}, "frame_name": {"s": "U3RhdGVmdWxQYXJ0aXRpb25lZENhbGwvbW9kZWxfMS9iaWRpcmVjdGlvbmFsXzgvZm9yd2FyZF9sc3RtXzgvUGFydGl0aW9uZWRDYWxsL3doaWxl"}, "parallel_iterations": {"i": "32"}, "is_constant": {"b": false}}}, {"name": "StatefulPartitionedCall/model_1/bidirectional_8/forward_lstm_8/PartitionedCall/while/enter/_78", "op": "Enter", "input": ["StatefulPartitionedCall/model_1/bidirectional_8/forward_lstm_8/Read_1/ReadVariableOp"], "attr": {"frame_name": {"s": "U3RhdGVmdWxQYXJ0aXRpb25lZENhbGwvbW9kZWxfMS9iaWRpcmVjdGlvbmFsXzgvZm9yd2FyZF9sc3RtXzgvUGFydGl0aW9uZWRDYWxsL3doaWxl"}, "is_constant": {"b": false}, "T": {"type": "DT_FLOAT"}, "parallel_iterations": {"i": "32"}}}, {"name": "StatefulPartitionedCall/model_1/bidirectional_8/forward_lstm_8/PartitionedCall/while/enter/_79", "op": "Enter", "input": ["StatefulPartitionedCall/model_1/bidirectional_8/forward_lstm_8/Read_2/ReadVariableOp"], "attr": {"T": {"type": "DT_FLOAT"}, "frame_name": {"s": "U3RhdGVmdWxQYXJ0aXRpb25lZENhbGwvbW9kZWxfMS9iaWRpcmVjdGlvbmFsXzgvZm9yd2FyZF9sc3RtXzgvUGFydGl0aW9uZWRDYWxsL3doaWxl"}, "is_constant": {"b": false}, "parallel_iterations": {"i": "32"}}}, {"name": "StatefulPartitionedCall/model_1/bidirectional_8/forward_lstm_8/PartitionedCall/while/enter/_71", "op": "Enter", "input": ["StatefulPartitionedCall/model_1/bidirectional_8/forward_lstm_8/PartitionedCall/time"], "attr": {"frame_name": {"s": "U3RhdGVmdWxQYXJ0aXRpb25lZENhbGwvbW9kZWxfMS9iaWRpcmVjdGlvbmFsXzgvZm9yd2FyZF9sc3RtXzgvUGFydGl0aW9uZWRDYWxsL3doaWxl"}, "parallel_iterations": {"i": "32"}, "T": {"type": "DT_INT32"}, "is_constant": {"b": false}}}, {"name": "StatefulPartitionedCall/model_1/bidirectional_8/forward_lstm_8/PartitionedCall/while/enter/_69", "op": "Enter", "input": ["StatefulPartitionedCall/model_1/bidirectional_8/forward_lstm_8/PartitionedCall/while/loop_counter"], "attr": {"T": {"type": "DT_INT32"}, "is_constant": {"b": false}, "parallel_iterations": {"i": "32"}, "frame_name": {"s": "U3RhdGVmdWxQYXJ0aXRpb25lZENhbGwvbW9kZWxfMS9iaWRpcmVjdGlvbmFsXzgvZm9yd2FyZF9sc3RtXzgvUGFydGl0aW9uZWRDYWxsL3doaWxl"}}}, {"name": "StatefulPartitionedCall/model_1/bidirectional_8/backward_lstm_8/PartitionedCall/while/enter/_137", "op": "Enter", "input": ["StatefulPartitionedCall/model_1/bidirectional_8/backward_lstm_8/Read/ReadVariableOp"], "attr": {"frame_name": {"s": "U3RhdGVmdWxQYXJ0aXRpb25lZENhbGwvbW9kZWxfMS9iaWRpcmVjdGlvbmFsXzgvYmFja3dhcmRfbHN0bV84L1BhcnRpdGlvbmVkQ2FsbC93aGlsZQ=="}, "parallel_iterations": {"i": "32"}, "is_constant": {"b": false}, "T": {"type": "DT_FLOAT"}}}, {"name": "StatefulPartitionedCall/model_1/bidirectional_8/backward_lstm_8/PartitionedCall/while/enter/_138", "op": "Enter", "input": ["StatefulPartitionedCall/model_1/bidirectional_8/backward_lstm_8/Read_1/ReadVariableOp"], "attr": {"parallel_iterations": {"i": "32"}, "frame_name": {"s": "U3RhdGVmdWxQYXJ0aXRpb25lZENhbGwvbW9kZWxfMS9iaWRpcmVjdGlvbmFsXzgvYmFja3dhcmRfbHN0bV84L1BhcnRpdGlvbmVkQ2FsbC93aGlsZQ=="}, "T": {"type": "DT_FLOAT"}, "is_constant": {"b": false}}}, {"name": "StatefulPartitionedCall/model_1/bidirectional_8/backward_lstm_8/PartitionedCall/while/enter/_139", "op": "Enter", "input": ["StatefulPartitionedCall/model_1/bidirectional_8/backward_lstm_8/Read_2/ReadVariableOp"], "attr": {"frame_name": {"s": "U3RhdGVmdWxQYXJ0aXRpb25lZENhbGwvbW9kZWxfMS9iaWRpcmVjdGlvbmFsXzgvYmFja3dhcmRfbHN0bV84L1BhcnRpdGlvbmVkQ2FsbC93aGlsZQ=="}, "is_constant": {"b": false}, "parallel_iterations": {"i": "32"}, "T": {"type": "DT_FLOAT"}}}, {"name": "StatefulPartitionedCall/model_1/bidirectional_8/backward_lstm_8/PartitionedCall/while/enter/_131", "op": "Enter", "input": ["StatefulPartitionedCall/model_1/bidirectional_8/backward_lstm_8/PartitionedCall/time"], "attr": {"is_constant": {"b": false}, "parallel_iterations": {"i": "32"}, "T": {"type": "DT_INT32"}, "frame_name": {"s": "U3RhdGVmdWxQYXJ0aXRpb25lZENhbGwvbW9kZWxfMS9iaWRpcmVjdGlvbmFsXzgvYmFja3dhcmRfbHN0bV84L1BhcnRpdGlvbmVkQ2FsbC93aGlsZQ=="}}}, {"name": "StatefulPartitionedCall/model_1/bidirectional_8/backward_lstm_8/PartitionedCall/while/enter/_129", "op": "Enter", "input": ["StatefulPartitionedCall/model_1/bidirectional_8/backward_lstm_8/PartitionedCall/while/loop_counter"], "attr": {"parallel_iterations": {"i": "32"}, "frame_name": {"s": "U3RhdGVmdWxQYXJ0aXRpb25lZENhbGwvbW9kZWxfMS9iaWRpcmVjdGlvbmFsXzgvYmFja3dhcmRfbHN0bV84L1BhcnRpdGlvbmVkQ2FsbC93aGlsZQ=="}, "T": {"type": "DT_INT32"}, "is_constant": {"b": false}}}, {"name": "StatefulPartitionedCall/model_1/bidirectional_9/backward_lstm_9/PartitionedCall/while/enter/_249", "op": "Enter", "input": ["StatefulPartitionedCall/model_1/bidirectional_9/backward_lstm_9/PartitionedCall/while/loop_counter"], "attr": {"is_constant": {"b": false}, "T": {"type": "DT_INT32"}, "parallel_iterations": {"i": "32"}, "frame_name": {"s": "U3RhdGVmdWxQYXJ0aXRpb25lZENhbGwvbW9kZWxfMS9iaWRpcmVjdGlvbmFsXzkvYmFja3dhcmRfbHN0bV85L1BhcnRpdGlvbmVkQ2FsbC93aGlsZQ=="}}}, {"name": "StatefulPartitionedCall/model_1/Conv1/Relu", "op": "_FusedConv2D", "input": ["input_data", "StatefulPartitionedCall/model_1/Conv1/Conv2D/ReadVariableOp", "StatefulPartitionedCall/model_1/Conv1/BiasAdd/ReadVariableOp"], "device": "/device:CPU:0", "attr": {"dilations": {"list": {"i": ["1", "1", "1", "1"]}}, "filter_format": {"s": "SFdJTw=="}, "TArgs": {"list": {"type": ["DT_FLOAT"]}}, "strides": {"list": {"i": ["1", "1", "1", "1"]}}, "use_cudnn_on_gpu": {"b": true}, "T": {"type": "DT_FLOAT"}, "num_host_args": {"i": "0"}, "num_args": {"i": "1"}, "data_format": {"s": "TkhXQw=="}, "padding": {"s": "U0FNRQ=="}, "fused_ops": {"list": {"s": ["Qmlhc0FkZA==", "UmVsdQ=="]}}, "epsilon": {"f": 0.0}, "explicit_paddings": {"list": {}}, "leakyrelu_alpha": {"f": 0.2}}}, {"name": "StatefulPartitionedCall/model_1/bidirectional_9/forward_lstm_9/PartitionedCall/while/merge/_208", "op": "Merge", "input": ["StatefulPartitionedCall/model_1/bidirectional_9/forward_lstm_9/PartitionedCall/while/enter/_197", "StatefulPartitionedCall/model_1/bidirectional_9/forward_lstm_9/PartitionedCall/while/next_iteration/_244"], "attr": {"T": {"type": "DT_FLOAT"}, "N": {"i": "2"}}}, {"name": "StatefulPartitionedCall/model_1/bidirectional_9/forward_lstm_9/PartitionedCall/while/merge/_209", "op": "Merge", "input": ["StatefulPartitionedCall/model_1/bidirectional_9/forward_lstm_9/PartitionedCall/while/enter/_198", "StatefulPartitionedCall/model_1/bidirectional_9/forward_lstm_9/PartitionedCall/while/next_iteration/_245"], "attr": {"N": {"i": "2"}, "T": {"type": "DT_FLOAT"}}}, {"name": "StatefulPartitionedCall/model_1/bidirectional_9/forward_lstm_9/PartitionedCall/while/merge/_210", "op": "Merge", "input": ["StatefulPartitionedCall/model_1/bidirectional_9/forward_lstm_9/PartitionedCall/while/enter/_199", "StatefulPartitionedCall/model_1/bidirectional_9/forward_lstm_9/PartitionedCall/while/next_iteration/_246"], "attr": {"T": {"type": "DT_FLOAT"}, "N": {"i": "2"}}}, {"name": "StatefulPartitionedCall/model_1/bidirectional_9/forward_lstm_9/PartitionedCall/while/merge/_202", "op": "Merge", "input": ["StatefulPartitionedCall/model_1/bidirectional_9/forward_lstm_9/PartitionedCall/while/enter/_191", "StatefulPartitionedCall/model_1/bidirectional_9/forward_lstm_9/PartitionedCall/while/next_iteration/_238"], "attr": {"T": {"type": "DT_INT32"}, "N": {"i": "2"}}}, {"name": "StatefulPartitionedCall/model_1/bidirectional_9/forward_lstm_9/PartitionedCall/while/merge/_200", "op": "Merge", "input": ["StatefulPartitionedCall/model_1/bidirectional_9/forward_lstm_9/PartitionedCall/while/enter/_189", "StatefulPartitionedCall/model_1/bidirectional_9/forward_lstm_9/PartitionedCall/while/next_iteration/_236"], "attr": {"T": {"type": "DT_INT32"}, "N": {"i": "2"}, "_has_manual_control_dependencies": {"b": true}}}, {"name": "StatefulPartitionedCall/model_1/bidirectional_9/backward_lstm_9/PartitionedCall/while/merge/_268", "op": "Merge", "input": ["StatefulPartitionedCall/model_1/bidirectional_9/backward_lstm_9/PartitionedCall/while/enter/_257", "StatefulPartitionedCall/model_1/bidirectional_9/backward_lstm_9/PartitionedCall/while/next_iteration/_304"], "attr": {"T": {"type": "DT_FLOAT"}, "N": {"i": "2"}}}, {"name": "StatefulPartitionedCall/model_1/bidirectional_9/backward_lstm_9/PartitionedCall/while/merge/_269", "op": "Merge", "input": ["StatefulPartitionedCall/model_1/bidirectional_9/backward_lstm_9/PartitionedCall/while/enter/_258", "StatefulPartitionedCall/model_1/bidirectional_9/backward_lstm_9/PartitionedCall/while/next_iteration/_305"], "attr": {"T": {"type": "DT_FLOAT"}, "N": {"i": "2"}}}, {"name": "StatefulPartitionedCall/model_1/bidirectional_9/backward_lstm_9/PartitionedCall/while/merge/_270", "op": "Merge", "input": ["StatefulPartitionedCall/model_1/bidirectional_9/backward_lstm_9/PartitionedCall/while/enter/_259", "StatefulPartitionedCall/model_1/bidirectional_9/backward_lstm_9/PartitionedCall/while/next_iteration/_306"], "attr": {"N": {"i": "2"}, "T": {"type": "DT_FLOAT"}}}, {"name": "StatefulPartitionedCall/model_1/bidirectional_9/backward_lstm_9/PartitionedCall/while/merge/_262", "op": "Merge", "input": ["StatefulPartitionedCall/model_1/bidirectional_9/backward_lstm_9/PartitionedCall/while/enter/_251", "StatefulPartitionedCall/model_1/bidirectional_9/backward_lstm_9/PartitionedCall/while/next_iteration/_298"], "attr": {"N": {"i": "2"}, "T": {"type": "DT_INT32"}}}, {"name": "StatefulPartitionedCall/model_1/bidirectional_8/forward_lstm_8/PartitionedCall/while/merge/_88", "op": "Merge", "input": ["StatefulPartitionedCall/model_1/bidirectional_8/forward_lstm_8/PartitionedCall/while/enter/_77", "StatefulPartitionedCall/model_1/bidirectional_8/forward_lstm_8/PartitionedCall/while/next_iteration/_124"], "attr": {"N": {"i": "2"}, "T": {"type": "DT_FLOAT"}}}, {"name": "StatefulPartitionedCall/model_1/bidirectional_8/forward_lstm_8/PartitionedCall/while/merge/_89", "op": "Merge", "input": ["StatefulPartitionedCall/model_1/bidirectional_8/forward_lstm_8/PartitionedCall/while/enter/_78", "StatefulPartitionedCall/model_1/bidirectional_8/forward_lstm_8/PartitionedCall/while/next_iteration/_125"], "attr": {"T": {"type": "DT_FLOAT"}, "N": {"i": "2"}}}, {"name": "StatefulPartitionedCall/model_1/bidirectional_8/forward_lstm_8/PartitionedCall/while/merge/_90", "op": "Merge", "input": ["StatefulPartitionedCall/model_1/bidirectional_8/forward_lstm_8/PartitionedCall/while/enter/_79", "StatefulPartitionedCall/model_1/bidirectional_8/forward_lstm_8/PartitionedCall/while/next_iteration/_126"], "attr": {"T": {"type": "DT_FLOAT"}, "N": {"i": "2"}}}, {"name": "StatefulPartitionedCall/model_1/bidirectional_8/forward_lstm_8/PartitionedCall/while/merge/_82", "op": "Merge", "input": ["StatefulPartitionedCall/model_1/bidirectional_8/forward_lstm_8/PartitionedCall/while/enter/_71", "StatefulPartitionedCall/model_1/bidirectional_8/forward_lstm_8/PartitionedCall/while/next_iteration/_118"], "attr": {"T": {"type": "DT_INT32"}, "N": {"i": "2"}}}, {"name": "StatefulPartitionedCall/model_1/bidirectional_8/forward_lstm_8/PartitionedCall/while/merge/_80", "op": "Merge", "input": ["StatefulPartitionedCall/model_1/bidirectional_8/forward_lstm_8/PartitionedCall/while/enter/_69", "StatefulPartitionedCall/model_1/bidirectional_8/forward_lstm_8/PartitionedCall/while/next_iteration/_116"], "attr": {"N": {"i": "2"}, "_has_manual_control_dependencies": {"b": true}, "T": {"type": "DT_INT32"}}}, {"name": "StatefulPartitionedCall/model_1/bidirectional_8/backward_lstm_8/PartitionedCall/while/merge/_148", "op": "Merge", "input": ["StatefulPartitionedCall/model_1/bidirectional_8/backward_lstm_8/PartitionedCall/while/enter/_137", "StatefulPartitionedCall/model_1/bidirectional_8/backward_lstm_8/PartitionedCall/while/next_iteration/_184"], "attr": {"T": {"type": "DT_FLOAT"}, "N": {"i": "2"}}}, {"name": "StatefulPartitionedCall/model_1/bidirectional_8/backward_lstm_8/PartitionedCall/while/merge/_149", "op": "Merge", "input": ["StatefulPartitionedCall/model_1/bidirectional_8/backward_lstm_8/PartitionedCall/while/enter/_138", "StatefulPartitionedCall/model_1/bidirectional_8/backward_lstm_8/PartitionedCall/while/next_iteration/_185"], "attr": {"N": {"i": "2"}, "T": {"type": "DT_FLOAT"}}}, {"name": "StatefulPartitionedCall/model_1/bidirectional_8/backward_lstm_8/PartitionedCall/while/merge/_150", "op": "Merge", "input": ["StatefulPartitionedCall/model_1/bidirectional_8/backward_lstm_8/PartitionedCall/while/enter/_139", "StatefulPartitionedCall/model_1/bidirectional_8/backward_lstm_8/PartitionedCall/while/next_iteration/_186"], "attr": {"N": {"i": "2"}, "T": {"type": "DT_FLOAT"}}}, {"name": "StatefulPartitionedCall/model_1/bidirectional_8/backward_lstm_8/PartitionedCall/while/merge/_142", "op": "Merge", "input": ["StatefulPartitionedCall/model_1/bidirectional_8/backward_lstm_8/PartitionedCall/while/enter/_131", "StatefulPartitionedCall/model_1/bidirectional_8/backward_lstm_8/PartitionedCall/while/next_iteration/_178"], "attr": {"N": {"i": "2"}, "T": {"type": "DT_INT32"}}}, {"name": "StatefulPartitionedCall/model_1/bidirectional_8/backward_lstm_8/PartitionedCall/while/merge/_140", "op": "Merge", "input": ["StatefulPartitionedCall/model_1/bidirectional_8/backward_lstm_8/PartitionedCall/while/enter/_129", "StatefulPartitionedCall/model_1/bidirectional_8/backward_lstm_8/PartitionedCall/while/next_iteration/_176"], "attr": {"_has_manual_control_dependencies": {"b": true}, "T": {"type": "DT_INT32"}, "N": {"i": "2"}}}, {"name": "StatefulPartitionedCall/model_1/bidirectional_9/backward_lstm_9/PartitionedCall/while/merge/_260", "op": "Merge", "input": ["StatefulPartitionedCall/model_1/bidirectional_9/backward_lstm_9/PartitionedCall/while/enter/_249", "StatefulPartitionedCall/model_1/bidirectional_9/backward_lstm_9/PartitionedCall/while/next_iteration/_296"], "attr": {"N": {"i": "2"}, "T": {"type": "DT_INT32"}}}, {"name": "StatefulPartitionedCall/model_1/pool1/MaxPool", "op": "MaxPool", "input": ["StatefulPartitionedCall/model_1/Conv1/Relu"], "attr": {"padding": {"s": "VkFMSUQ="}, "explicit_paddings": {"list": {}}, "T": {"type": "DT_FLOAT"}, "ksize": {"list": {"i": ["1", "2", "2", "1"]}}, "strides": {"list": {"i": ["1", "2", "2", "1"]}}, "data_format": {"s": "TkhXQw=="}}}, {"name": "StatefulPartitionedCall/model_1/Conv2/Relu", "op": "_FusedConv2D", "input": ["StatefulPartitionedCall/model_1/pool1/MaxPool", "StatefulPartitionedCall/model_1/Conv2/Conv2D/ReadVariableOp", "StatefulPartitionedCall/model_1/Conv2/BiasAdd/ReadVariableOp"], "device": "/device:CPU:0", "attr": {"num_args": {"i": "1"}, "dilations": {"list": {"i": ["1", "1", "1", "1"]}}, "T": {"type": "DT_FLOAT"}, "num_host_args": {"i": "0"}, "filter_format": {"s": "SFdJTw=="}, "fused_ops": {"list": {"s": ["Qmlhc0FkZA==", "UmVsdQ=="]}}, "padding": {"s": "U0FNRQ=="}, "TArgs": {"list": {"type": ["DT_FLOAT"]}}, "data_format": {"s": "TkhXQw=="}, "explicit_paddings": {"list": {}}, "leakyrelu_alpha": {"f": 0.2}, "strides": {"list": {"i": ["1", "1", "1", "1"]}}, "epsilon": {"f": 0.0}, "use_cudnn_on_gpu": {"b": true}}}, {"name": "StatefulPartitionedCall/model_1/pool2/MaxPool", "op": "MaxPool", "input": ["StatefulPartitionedCall/model_1/Conv2/Relu"], "attr": {"strides": {"list": {"i": ["1", "2", "2", "1"]}}, "T": {"type": "DT_FLOAT"}, "data_format": {"s": "TkhXQw=="}, "explicit_paddings": {"list": {}}, "padding": {"s": "VkFMSUQ="}, "ksize": {"list": {"i": ["1", "2", "2", "1"]}}}}, {"name": "StatefulPartitionedCall/model_1/reshape/Shape", "op": "Shape", "input": ["StatefulPartitionedCall/model_1/pool2/MaxPool"], "attr": {"T": {"type": "DT_FLOAT"}, "out_type": {"type": "DT_INT32"}}}, {"name": "StatefulPartitionedCall/model_1/reshape/strided_slice", "op": "StridedSlice", "input": ["StatefulPartitionedCall/model_1/reshape/Shape", "StatefulPartitionedCall/model_1/reshape/strided_slice/stack", "StatefulPartitionedCall/model_1/reshape/strided_slice/stack_1", "StatefulPartitionedCall/model_1/reshape/strided_slice/stack_2"], "attr": {"shrink_axis_mask": {"i": "1"}, "T": {"type": "DT_INT32"}, "new_axis_mask": {"i": "0"}, "end_mask": {"i": "0"}, "Index": {"type": "DT_INT32"}, "ellipsis_mask": {"i": "0"}, "begin_mask": {"i": "0"}}}, {"name": "StatefulPartitionedCall/model_1/reshape/Reshape/shape", "op": "Pack", "input": ["StatefulPartitionedCall/model_1/reshape/strided_slice", "StatefulPartitionedCall/model_1/reshape/Reshape/shape/1", "StatefulPartitionedCall/model_1/reshape/Reshape/shape/2"], "attr": {"axis": {"i": "0"}, "N": {"i": "3"}, "T": {"type": "DT_INT32"}}}, {"name": "StatefulPartitionedCall/model_1/reshape/Reshape", "op": "Reshape", "input": ["StatefulPartitionedCall/model_1/pool2/MaxPool", "StatefulPartitionedCall/model_1/reshape/Reshape/shape"], "attr": {"Tshape": {"type": "DT_INT32"}, "T": {"type": "DT_FLOAT"}}}, {"name": "StatefulPartitionedCall/model_1/dense1/Tensordot/Shape", "op": "Shape", "input": ["StatefulPartitionedCall/model_1/reshape/Reshape"], "attr": {"out_type": {"type": "DT_INT32"}, "T": {"type": "DT_FLOAT"}}}, {"name": "StatefulPartitionedCall/model_1/dense1/Tensordot/GatherV2_1", "op": "GatherV2", "input": ["StatefulPartitionedCall/model_1/dense1/Tensordot/Shape", "StatefulPartitionedCall/model_1/dense1/Tensordot/axes", "StatefulPartitionedCall/model_1/dense1/Tensordot/GatherV2_1/axis"], "attr": {"Tparams": {"type": "DT_INT32"}, "batch_dims": {"i": "0"}, "Taxis": {"type": "DT_INT32"}, "Tindices": {"type": "DT_INT32"}}}, {"name": "StatefulPartitionedCall/model_1/dense1/Tensordot/GatherV2", "op": "GatherV2", "input": ["StatefulPartitionedCall/model_1/dense1/Tensordot/Shape", "StatefulPartitionedCall/model_1/dense1/Tensordot/free", "StatefulPartitionedCall/model_1/dense1/Tensordot/GatherV2/axis"], "attr": {"Tindices": {"type": "DT_INT32"}, "Taxis": {"type": "DT_INT32"}, "Tparams": {"type": "DT_INT32"}, "batch_dims": {"i": "0"}}}, {"name": "StatefulPartitionedCall/model_1/dense1/Tensordot/Prod_1", "op": "Prod", "input": ["StatefulPartitionedCall/model_1/dense1/Tensordot/GatherV2_1", "StatefulPartitionedCall/model_1/dense1/Tensordot/Const_1"], "attr": {"keep_dims": {"b": false}, "Tidx": {"type": "DT_INT32"}, "T": {"type": "DT_INT32"}}}, {"name": "StatefulPartitionedCall/model_1/dense1/Tensordot/Prod", "op": "Prod", "input": ["StatefulPartitionedCall/model_1/dense1/Tensordot/GatherV2", "StatefulPartitionedCall/model_1/dense1/Tensordot/Const"], "attr": {"Tidx": {"type": "DT_INT32"}, "T": {"type": "DT_INT32"}, "keep_dims": {"b": false}}}, {"name": "StatefulPartitionedCall/model_1/dense1/Tensordot/concat_1", "op": "ConcatV2", "input": ["StatefulPartitionedCall/model_1/dense1/Tensordot/GatherV2", "StatefulPartitionedCall/model_1/dense1/Tensordot/Const_2", "StatefulPartitionedCall/model_1/dense1/Tensordot/concat_1/axis"], "attr": {"Tidx": {"type": "DT_INT32"}, "N": {"i": "2"}, "T": {"type": "DT_INT32"}}}, {"name": "StatefulPartitionedCall/model_1/dense1/Tensordot/stack", "op": "Pack", "input": ["StatefulPartitionedCall/model_1/dense1/Tensordot/Prod", "StatefulPartitionedCall/model_1/dense1/Tensordot/Prod_1"], "attr": {"axis": {"i": "0"}, "N": {"i": "2"}, "T": {"type": "DT_INT32"}}}, {"name": "StatefulPartitionedCall/model_1/dense1/Tensordot/Reshape", "op": "Reshape", "input": ["StatefulPartitionedCall/model_1/reshape/Reshape", "StatefulPartitionedCall/model_1/dense1/Tensordot/stack"], "attr": {"Tshape": {"type": "DT_INT32"}, "T": {"type": "DT_FLOAT"}}}, {"name": "StatefulPartitionedCall/model_1/dense1/Tensordot/MatMul", "op": "MatMul", "input": ["StatefulPartitionedCall/model_1/dense1/Tensordot/Reshape", "StatefulPartitionedCall/model_1/dense1/Tensordot/ReadVariableOp"], "device": "/device:CPU:0", "attr": {"transpose_b": {"b": false}, "T": {"type": "DT_FLOAT"}, "transpose_a": {"b": false}}}, {"name": "StatefulPartitionedCall/model_1/dense1/Tensordot", "op": "Reshape", "input": ["StatefulPartitionedCall/model_1/dense1/Tensordot/MatMul", "StatefulPartitionedCall/model_1/dense1/Tensordot/concat_1"], "attr": {"T": {"type": "DT_FLOAT"}, "Tshape": {"type": "DT_INT32"}}}, {"name": "StatefulPartitionedCall/model_1/dense1/BiasAdd", "op": "BiasAdd", "input": ["StatefulPartitionedCall/model_1/dense1/Tensordot", "StatefulPartitionedCall/model_1/dense1/BiasAdd/ReadVariableOp"], "attr": {"data_format": {"s": "TkhXQw=="}, "T": {"type": "DT_FLOAT"}}}, {"name": "StatefulPartitionedCall/model_1/dense1/Relu", "op": "Relu", "input": ["StatefulPartitionedCall/model_1/dense1/BiasAdd"], "attr": {"T": {"type": "DT_FLOAT"}}}, {"name": "StatefulPartitionedCall/model_1/bidirectional_8/forward_lstm_8/Shape", "op": "Shape", "input": ["StatefulPartitionedCall/model_1/dense1/Relu"], "attr": {"out_type": {"type": "DT_INT32"}, "T": {"type": "DT_FLOAT"}}}, {"name": "StatefulPartitionedCall/model_1/bidirectional_8/forward_lstm_8/PartitionedCall/transpose", "op": "Transpose", "input": ["StatefulPartitionedCall/model_1/dense1/Relu", "StatefulPartitionedCall/model_1/bidirectional_8/forward_lstm_8/PartitionedCall/transpose/perm"], "attr": {"Tperm": {"type": "DT_INT32"}, "T": {"type": "DT_FLOAT"}}}, {"name": "StatefulPartitionedCall/model_1/bidirectional_8/backward_lstm_8/Shape", "op": "Shape", "input": ["StatefulPartitionedCall/model_1/dense1/Relu"], "attr": {"out_type": {"type": "DT_INT32"}, "T": {"type": "DT_FLOAT"}}}, {"name": "StatefulPartitionedCall/model_1/bidirectional_8/backward_lstm_8/PartitionedCall/transpose", "op": "Transpose", "input": ["StatefulPartitionedCall/model_1/dense1/Relu", "StatefulPartitionedCall/model_1/bidirectional_8/backward_lstm_8/PartitionedCall/transpose/perm"], "attr": {"Tperm": {"type": "DT_INT32"}, "T": {"type": "DT_FLOAT"}}}, {"name": "StatefulPartitionedCall/model_1/bidirectional_8/forward_lstm_8/strided_slice", "op": "StridedSlice", "input": ["StatefulPartitionedCall/model_1/bidirectional_8/forward_lstm_8/Shape", "StatefulPartitionedCall/model_1/bidirectional_8/forward_lstm_8/strided_slice/stack", "StatefulPartitionedCall/model_1/bidirectional_8/forward_lstm_8/strided_slice/stack_1", "StatefulPartitionedCall/model_1/bidirectional_8/forward_lstm_8/strided_slice/stack_2"], "attr": {"new_axis_mask": {"i": "0"}, "shrink_axis_mask": {"i": "1"}, "Index": {"type": "DT_INT32"}, "ellipsis_mask": {"i": "0"}, "T": {"type": "DT_INT32"}, "end_mask": {"i": "0"}, "begin_mask": {"i": "0"}}}, {"name": "StatefulPartitionedCall/model_1/bidirectional_8/forward_lstm_8/PartitionedCall/TensorArrayUnstack/TensorListFromTensor", "op": "TensorListFromTensor", "input": ["StatefulPartitionedCall/model_1/bidirectional_8/forward_lstm_8/PartitionedCall/transpose", "StatefulPartitionedCall/model_1/bidirectional_8/forward_lstm_8/PartitionedCall/TensorArrayUnstack/TensorListFromTensor/element_shape"], "attr": {"element_dtype": {"type": "DT_FLOAT"}, "shape_type": {"type": "DT_INT32"}}, "experimentalType": {"typeId": "TFT_PRODUCT", "args": [{"typeId": "TFT_ARRAY", "args": [{"typeId": "TFT_TENSOR", "args": [{"typeId": "TFT_FLOAT"}]}]}]}}, {"name": "StatefulPartitionedCall/model_1/bidirectional_8/forward_lstm_8/PartitionedCall/Shape", "op": "Shape", "input": ["StatefulPartitionedCall/model_1/bidirectional_8/forward_lstm_8/PartitionedCall/transpose"], "attr": {"out_type": {"type": "DT_INT32"}, "T": {"type": "DT_FLOAT"}}}, {"name": "StatefulPartitionedCall/model_1/bidirectional_8/backward_lstm_8/strided_slice", "op": "StridedSlice", "input": ["StatefulPartitionedCall/model_1/bidirectional_8/backward_lstm_8/Shape", "StatefulPartitionedCall/model_1/bidirectional_8/backward_lstm_8/strided_slice/stack", "StatefulPartitionedCall/model_1/bidirectional_8/backward_lstm_8/strided_slice/stack_1", "StatefulPartitionedCall/model_1/bidirectional_8/backward_lstm_8/strided_slice/stack_2"], "attr": {"begin_mask": {"i": "0"}, "shrink_axis_mask": {"i": "1"}, "T": {"type": "DT_INT32"}, "ellipsis_mask": {"i": "0"}, "end_mask": {"i": "0"}, "Index": {"type": "DT_INT32"}, "new_axis_mask": {"i": "0"}}}, {"name": "StatefulPartitionedCall/model_1/bidirectional_8/backward_lstm_8/PartitionedCall/ReverseV2", "op": "ReverseV2", "input": ["StatefulPartitionedCall/model_1/bidirectional_8/backward_lstm_8/PartitionedCall/transpose", "StatefulPartitionedCall/model_1/bidirectional_8/backward_lstm_8/PartitionedCall/ReverseV2/axis"], "attr": {"Tidx": {"type": "DT_INT32"}, "T": {"type": "DT_FLOAT"}}}, {"name": "StatefulPartitionedCall/model_1/bidirectional_8/backward_lstm_8/PartitionedCall/Shape", "op": "Shape", "input": ["StatefulPartitionedCall/model_1/bidirectional_8/backward_lstm_8/PartitionedCall/transpose"], "attr": {"T": {"type": "DT_FLOAT"}, "out_type": {"type": "DT_INT32"}}}, {"name": "StatefulPartitionedCall/model_1/bidirectional_8/forward_lstm_8/zeros_1/packed", "op": "Pack", "input": ["StatefulPartitionedCall/model_1/bidirectional_8/forward_lstm_8/strided_slice", "StatefulPartitionedCall/model_1/bidirectional_8/forward_lstm_8/zeros_1/packed/1"], "attr": {"N": {"i": "2"}, "T": {"type": "DT_INT32"}, "axis": {"i": "0"}}}, {"name": "StatefulPartitionedCall/model_1/bidirectional_8/forward_lstm_8/zeros/packed", "op": "Pack", "input": ["StatefulPartitionedCall/model_1/bidirectional_8/forward_lstm_8/strided_slice", "StatefulPartitionedCall/model_1/bidirectional_8/forward_lstm_8/zeros/packed/1"], "attr": {"N": {"i": "2"}, "T": {"type": "DT_INT32"}, "axis": {"i": "0"}}}, {"name": "StatefulPartitionedCall/model_1/bidirectional_8/forward_lstm_8/PartitionedCall/while/enter/_76", "op": "Enter", "input": ["StatefulPartitionedCall/model_1/bidirectional_8/forward_lstm_8/PartitionedCall/TensorArrayUnstack/TensorListFromTensor"], "attr": {"frame_name": {"s": "U3RhdGVmdWxQYXJ0aXRpb25lZENhbGwvbW9kZWxfMS9iaWRpcmVjdGlvbmFsXzgvZm9yd2FyZF9sc3RtXzgvUGFydGl0aW9uZWRDYWxsL3doaWxl"}, "T": {"type": "DT_VARIANT"}, "parallel_iterations": {"i": "32"}, "is_constant": {"b": false}}}, {"name": "StatefulPartitionedCall/model_1/bidirectional_8/forward_lstm_8/PartitionedCall/strided_slice", "op": "StridedSlice", "input": ["StatefulPartitionedCall/model_1/bidirectional_8/forward_lstm_8/PartitionedCall/Shape", "StatefulPartitionedCall/model_1/bidirectional_8/forward_lstm_8/PartitionedCall/strided_slice/stack", "StatefulPartitionedCall/model_1/bidirectional_8/forward_lstm_8/PartitionedCall/strided_slice/stack_1", "StatefulPartitionedCall/model_1/bidirectional_8/forward_lstm_8/PartitionedCall/strided_slice/stack_2"], "attr": {"Index": {"type": "DT_INT32"}, "end_mask": {"i": "0"}, "begin_mask": {"i": "0"}, "ellipsis_mask": {"i": "0"}, "shrink_axis_mask": {"i": "1"}, "new_axis_mask": {"i": "0"}, "T": {"type": "DT_INT32"}}}, {"name": "StatefulPartitionedCall/model_1/bidirectional_8/backward_lstm_8/zeros_1/packed", "op": "Pack", "input": ["StatefulPartitionedCall/model_1/bidirectional_8/backward_lstm_8/strided_slice", "StatefulPartitionedCall/model_1/bidirectional_8/backward_lstm_8/zeros_1/packed/1"], "attr": {"axis": {"i": "0"}, "T": {"type": "DT_INT32"}, "N": {"i": "2"}}}, {"name": "StatefulPartitionedCall/model_1/bidirectional_8/backward_lstm_8/zeros/packed", "op": "Pack", "input": ["StatefulPartitionedCall/model_1/bidirectional_8/backward_lstm_8/strided_slice", "StatefulPartitionedCall/model_1/bidirectional_8/backward_lstm_8/zeros/packed/1"], "attr": {"axis": {"i": "0"}, "T": {"type": "DT_INT32"}, "N": {"i": "2"}}}, {"name": "StatefulPartitionedCall/model_1/bidirectional_8/backward_lstm_8/PartitionedCall/TensorArrayUnstack/TensorListFromTensor", "op": "TensorListFromTensor", "input": ["StatefulPartitionedCall/model_1/bidirectional_8/backward_lstm_8/PartitionedCall/ReverseV2", "StatefulPartitionedCall/model_1/bidirectional_8/backward_lstm_8/PartitionedCall/TensorArrayUnstack/TensorListFromTensor/element_shape"], "attr": {"element_dtype": {"type": "DT_FLOAT"}, "shape_type": {"type": "DT_INT32"}}, "experimentalType": {"typeId": "TFT_PRODUCT", "args": [{"typeId": "TFT_ARRAY", "args": [{"typeId": "TFT_TENSOR", "args": [{"typeId": "TFT_FLOAT"}]}]}]}}, {"name": "StatefulPartitionedCall/model_1/bidirectional_8/backward_lstm_8/PartitionedCall/strided_slice", "op": "StridedSlice", "input": ["StatefulPartitionedCall/model_1/bidirectional_8/backward_lstm_8/PartitionedCall/Shape", "StatefulPartitionedCall/model_1/bidirectional_8/backward_lstm_8/PartitionedCall/strided_slice/stack", "StatefulPartitionedCall/model_1/bidirectional_8/backward_lstm_8/PartitionedCall/strided_slice/stack_1", "StatefulPartitionedCall/model_1/bidirectional_8/backward_lstm_8/PartitionedCall/strided_slice/stack_2"], "attr": {"new_axis_mask": {"i": "0"}, "ellipsis_mask": {"i": "0"}, "begin_mask": {"i": "0"}, "end_mask": {"i": "0"}, "Index": {"type": "DT_INT32"}, "shrink_axis_mask": {"i": "1"}, "T": {"type": "DT_INT32"}}}, {"name": "StatefulPartitionedCall/model_1/bidirectional_8/forward_lstm_8/zeros_1", "op": "Fill", "input": ["StatefulPartitionedCall/model_1/bidirectional_8/forward_lstm_8/zeros_1/packed", "StatefulPartitionedCall/model_1/bidirectional_8/forward_lstm_8/zeros_1/Const"], "attr": {"T": {"type": "DT_FLOAT"}, "index_type": {"type": "DT_INT32"}}}, {"name": "StatefulPartitionedCall/model_1/bidirectional_8/forward_lstm_8/zeros", "op": "Fill", "input": ["StatefulPartitionedCall/model_1/bidirectional_8/forward_lstm_8/zeros/packed", "StatefulPartitionedCall/model_1/bidirectional_8/forward_lstm_8/zeros/Const"], "attr": {"index_type": {"type": "DT_INT32"}, "T": {"type": "DT_FLOAT"}}}, {"name": "StatefulPartitionedCall/model_1/bidirectional_8/forward_lstm_8/PartitionedCall/while/merge/_87", "op": "Merge", "input": ["StatefulPartitionedCall/model_1/bidirectional_8/forward_lstm_8/PartitionedCall/while/enter/_76", "StatefulPartitionedCall/model_1/bidirectional_8/forward_lstm_8/PartitionedCall/while/next_iteration/_123"], "attr": {"T": {"type": "DT_VARIANT"}, "N": {"i": "2"}}}, {"name": "StatefulPartitionedCall/model_1/bidirectional_8/forward_lstm_8/PartitionedCall/TensorArrayV2_1", "op": "TensorListReserve", "input": ["StatefulPartitionedCall/model_1/bidirectional_8/forward_lstm_8/PartitionedCall/TensorArrayV2_1/element_shape", "StatefulPartitionedCall/model_1/bidirectional_8/forward_lstm_8/PartitionedCall/strided_slice"], "attr": {"shape_type": {"type": "DT_INT32"}, "element_dtype": {"type": "DT_FLOAT"}}, "experimentalType": {"typeId": "TFT_PRODUCT", "args": [{"typeId": "TFT_ARRAY", "args": [{"typeId": "TFT_TENSOR", "args": [{"typeId": "TFT_FLOAT"}]}]}]}}, {"name": "StatefulPartitionedCall/model_1/bidirectional_8/forward_lstm_8/PartitionedCall/while/enter/_75", "op": "Enter", "input": ["StatefulPartitionedCall/model_1/bidirectional_8/forward_lstm_8/PartitionedCall/strided_slice"], "attr": {"parallel_iterations": {"i": "32"}, "is_constant": {"b": false}, "T": {"type": "DT_INT32"}, "frame_name": {"s": "U3RhdGVmdWxQYXJ0aXRpb25lZENhbGwvbW9kZWxfMS9iaWRpcmVjdGlvbmFsXzgvZm9yd2FyZF9sc3RtXzgvUGFydGl0aW9uZWRDYWxsL3doaWxl"}}}, {"name": "StatefulPartitionedCall/model_1/bidirectional_8/backward_lstm_8/zeros_1", "op": "Fill", "input": ["StatefulPartitionedCall/model_1/bidirectional_8/backward_lstm_8/zeros_1/packed", "StatefulPartitionedCall/model_1/bidirectional_8/backward_lstm_8/zeros_1/Const"], "attr": {"T": {"type": "DT_FLOAT"}, "index_type": {"type": "DT_INT32"}}}, {"name": "StatefulPartitionedCall/model_1/bidirectional_8/backward_lstm_8/zeros", "op": "Fill", "input": ["StatefulPartitionedCall/model_1/bidirectional_8/backward_lstm_8/zeros/packed", "StatefulPartitionedCall/model_1/bidirectional_8/backward_lstm_8/zeros/Const"], "attr": {"T": {"type": "DT_FLOAT"}, "index_type": {"type": "DT_INT32"}}}, {"name": "StatefulPartitionedCall/model_1/bidirectional_8/backward_lstm_8/PartitionedCall/while/enter/_136", "op": "Enter", "input": ["StatefulPartitionedCall/model_1/bidirectional_8/backward_lstm_8/PartitionedCall/TensorArrayUnstack/TensorListFromTensor"], "attr": {"T": {"type": "DT_VARIANT"}, "frame_name": {"s": "U3RhdGVmdWxQYXJ0aXRpb25lZENhbGwvbW9kZWxfMS9iaWRpcmVjdGlvbmFsXzgvYmFja3dhcmRfbHN0bV84L1BhcnRpdGlvbmVkQ2FsbC93aGlsZQ=="}, "is_constant": {"b": false}, "parallel_iterations": {"i": "32"}}}, {"name": "StatefulPartitionedCall/model_1/bidirectional_8/backward_lstm_8/PartitionedCall/TensorArrayV2_1", "op": "TensorListReserve", "input": ["StatefulPartitionedCall/model_1/bidirectional_8/backward_lstm_8/PartitionedCall/TensorArrayV2_1/element_shape", "StatefulPartitionedCall/model_1/bidirectional_8/backward_lstm_8/PartitionedCall/strided_slice"], "attr": {"element_dtype": {"type": "DT_FLOAT"}, "shape_type": {"type": "DT_INT32"}}, "experimentalType": {"typeId": "TFT_PRODUCT", "args": [{"typeId": "TFT_ARRAY", "args": [{"typeId": "TFT_TENSOR", "args": [{"typeId": "TFT_FLOAT"}]}]}]}}, {"name": "StatefulPartitionedCall/model_1/bidirectional_8/backward_lstm_8/PartitionedCall/while/enter/_135", "op": "Enter", "input": ["StatefulPartitionedCall/model_1/bidirectional_8/backward_lstm_8/PartitionedCall/strided_slice"], "attr": {"parallel_iterations": {"i": "32"}, "frame_name": {"s": "U3RhdGVmdWxQYXJ0aXRpb25lZENhbGwvbW9kZWxfMS9iaWRpcmVjdGlvbmFsXzgvYmFja3dhcmRfbHN0bV84L1BhcnRpdGlvbmVkQ2FsbC93aGlsZQ=="}, "is_constant": {"b": false}, "T": {"type": "DT_INT32"}}}, {"name": "StatefulPartitionedCall/model_1/bidirectional_8/forward_lstm_8/PartitionedCall/while/enter/_74", "op": "Enter", "input": ["StatefulPartitionedCall/model_1/bidirectional_8/forward_lstm_8/zeros_1"], "attr": {"T": {"type": "DT_FLOAT"}, "is_constant": {"b": false}, "parallel_iterations": {"i": "32"}, "frame_name": {"s": "U3RhdGVmdWxQYXJ0aXRpb25lZENhbGwvbW9kZWxfMS9iaWRpcmVjdGlvbmFsXzgvZm9yd2FyZF9sc3RtXzgvUGFydGl0aW9uZWRDYWxsL3doaWxl"}}}, {"name": "StatefulPartitionedCall/model_1/bidirectional_8/forward_lstm_8/PartitionedCall/while/enter/_73", "op": "Enter", "input": ["StatefulPartitionedCall/model_1/bidirectional_8/forward_lstm_8/zeros"], "attr": {"T": {"type": "DT_FLOAT"}, "is_constant": {"b": false}, "parallel_iterations": {"i": "32"}, "frame_name": {"s": "U3RhdGVmdWxQYXJ0aXRpb25lZENhbGwvbW9kZWxfMS9iaWRpcmVjdGlvbmFsXzgvZm9yd2FyZF9sc3RtXzgvUGFydGl0aW9uZWRDYWxsL3doaWxl"}}}, {"name": "StatefulPartitionedCall/model_1/bidirectional_8/forward_lstm_8/PartitionedCall/while/enter/_72", "op": "Enter", "input": ["StatefulPartitionedCall/model_1/bidirectional_8/forward_lstm_8/PartitionedCall/TensorArrayV2_1"], "attr": {"parallel_iterations": {"i": "32"}, "frame_name": {"s": "U3RhdGVmdWxQYXJ0aXRpb25lZENhbGwvbW9kZWxfMS9iaWRpcmVjdGlvbmFsXzgvZm9yd2FyZF9sc3RtXzgvUGFydGl0aW9uZWRDYWxsL3doaWxl"}, "T": {"type": "DT_VARIANT"}, "is_constant": {"b": false}}}, {"name": "StatefulPartitionedCall/model_1/bidirectional_8/forward_lstm_8/PartitionedCall/while/merge/_86", "op": "Merge", "input": ["StatefulPartitionedCall/model_1/bidirectional_8/forward_lstm_8/PartitionedCall/while/enter/_75", "StatefulPartitionedCall/model_1/bidirectional_8/forward_lstm_8/PartitionedCall/while/next_iteration/_122"], "attr": {"N": {"i": "2"}, "T": {"type": "DT_INT32"}}}, {"name": "StatefulPartitionedCall/model_1/bidirectional_8/backward_lstm_8/PartitionedCall/while/enter/_134", "op": "Enter", "input": ["StatefulPartitionedCall/model_1/bidirectional_8/backward_lstm_8/zeros_1"], "attr": {"frame_name": {"s": "U3RhdGVmdWxQYXJ0aXRpb25lZENhbGwvbW9kZWxfMS9iaWRpcmVjdGlvbmFsXzgvYmFja3dhcmRfbHN0bV84L1BhcnRpdGlvbmVkQ2FsbC93aGlsZQ=="}, "is_constant": {"b": false}, "T": {"type": "DT_FLOAT"}, "parallel_iterations": {"i": "32"}}}, {"name": "StatefulPartitionedCall/model_1/bidirectional_8/backward_lstm_8/PartitionedCall/while/enter/_133", "op": "Enter", "input": ["StatefulPartitionedCall/model_1/bidirectional_8/backward_lstm_8/zeros"], "attr": {"frame_name": {"s": "U3RhdGVmdWxQYXJ0aXRpb25lZENhbGwvbW9kZWxfMS9iaWRpcmVjdGlvbmFsXzgvYmFja3dhcmRfbHN0bV84L1BhcnRpdGlvbmVkQ2FsbC93aGlsZQ=="}, "T": {"type": "DT_FLOAT"}, "parallel_iterations": {"i": "32"}, "is_constant": {"b": false}}}, {"name": "StatefulPartitionedCall/model_1/bidirectional_8/backward_lstm_8/PartitionedCall/while/merge/_147", "op": "Merge", "input": ["StatefulPartitionedCall/model_1/bidirectional_8/backward_lstm_8/PartitionedCall/while/enter/_136", "StatefulPartitionedCall/model_1/bidirectional_8/backward_lstm_8/PartitionedCall/while/next_iteration/_183"], "attr": {"N": {"i": "2"}, "T": {"type": "DT_VARIANT"}}}, {"name": "StatefulPartitionedCall/model_1/bidirectional_8/backward_lstm_8/PartitionedCall/while/enter/_132", "op": "Enter", "input": ["StatefulPartitionedCall/model_1/bidirectional_8/backward_lstm_8/PartitionedCall/TensorArrayV2_1"], "attr": {"frame_name": {"s": "U3RhdGVmdWxQYXJ0aXRpb25lZENhbGwvbW9kZWxfMS9iaWRpcmVjdGlvbmFsXzgvYmFja3dhcmRfbHN0bV84L1BhcnRpdGlvbmVkQ2FsbC93aGlsZQ=="}, "T": {"type": "DT_VARIANT"}, "parallel_iterations": {"i": "32"}, "is_constant": {"b": false}}}, {"name": "StatefulPartitionedCall/model_1/bidirectional_8/backward_lstm_8/PartitionedCall/while/merge/_146", "op": "Merge", "input": ["StatefulPartitionedCall/model_1/bidirectional_8/backward_lstm_8/PartitionedCall/while/enter/_135", "StatefulPartitionedCall/model_1/bidirectional_8/backward_lstm_8/PartitionedCall/while/next_iteration/_182"], "attr": {"N": {"i": "2"}, "T": {"type": "DT_INT32"}}}, {"name": "StatefulPartitionedCall/model_1/bidirectional_8/forward_lstm_8/PartitionedCall/while/merge/_85", "op": "Merge", "input": ["StatefulPartitionedCall/model_1/bidirectional_8/forward_lstm_8/PartitionedCall/while/enter/_74", "StatefulPartitionedCall/model_1/bidirectional_8/forward_lstm_8/PartitionedCall/while/next_iteration/_121"], "attr": {"T": {"type": "DT_FLOAT"}, "N": {"i": "2"}}}, {"name": "StatefulPartitionedCall/model_1/bidirectional_8/forward_lstm_8/PartitionedCall/while/merge/_84", "op": "Merge", "input": ["StatefulPartitionedCall/model_1/bidirectional_8/forward_lstm_8/PartitionedCall/while/enter/_73", "StatefulPartitionedCall/model_1/bidirectional_8/forward_lstm_8/PartitionedCall/while/next_iteration/_120"], "attr": {"N": {"i": "2"}, "T": {"type": "DT_FLOAT"}}}, {"name": "StatefulPartitionedCall/model_1/bidirectional_8/forward_lstm_8/PartitionedCall/while/merge/_83", "op": "Merge", "input": ["StatefulPartitionedCall/model_1/bidirectional_8/forward_lstm_8/PartitionedCall/while/enter/_72", "StatefulPartitionedCall/model_1/bidirectional_8/forward_lstm_8/PartitionedCall/while/next_iteration/_119"], "attr": {"N": {"i": "2"}, "T": {"type": "DT_VARIANT"}}}, {"name": "StatefulPartitionedCall/model_1/bidirectional_8/forward_lstm_8/PartitionedCall/while/cond/_67/while/Less", "op": "Less", "input": ["StatefulPartitionedCall/model_1/bidirectional_8/forward_lstm_8/PartitionedCall/while/merge/_82", "StatefulPartitionedCall/model_1/bidirectional_8/forward_lstm_8/PartitionedCall/while/merge/_86", "^StatefulPartitionedCall/model_1/bidirectional_8/forward_lstm_8/PartitionedCall/while/merge/_80"], "attr": {"T": {"type": "DT_INT32"}}}, {"name": "StatefulPartitionedCall/model_1/bidirectional_8/backward_lstm_8/PartitionedCall/while/merge/_145", "op": "Merge", "input": ["StatefulPartitionedCall/model_1/bidirectional_8/backward_lstm_8/PartitionedCall/while/enter/_134", "StatefulPartitionedCall/model_1/bidirectional_8/backward_lstm_8/PartitionedCall/while/next_iteration/_181"], "attr": {"N": {"i": "2"}, "T": {"type": "DT_FLOAT"}}}, {"name": "StatefulPartitionedCall/model_1/bidirectional_8/backward_lstm_8/PartitionedCall/while/merge/_144", "op": "Merge", "input": ["StatefulPartitionedCall/model_1/bidirectional_8/backward_lstm_8/PartitionedCall/while/enter/_133", "StatefulPartitionedCall/model_1/bidirectional_8/backward_lstm_8/PartitionedCall/while/next_iteration/_180"], "attr": {"N": {"i": "2"}, "T": {"type": "DT_FLOAT"}}}, {"name": "StatefulPartitionedCall/model_1/bidirectional_8/backward_lstm_8/PartitionedCall/while/merge/_143", "op": "Merge", "input": ["StatefulPartitionedCall/model_1/bidirectional_8/backward_lstm_8/PartitionedCall/while/enter/_132", "StatefulPartitionedCall/model_1/bidirectional_8/backward_lstm_8/PartitionedCall/while/next_iteration/_179"], "attr": {"T": {"type": "DT_VARIANT"}, "N": {"i": "2"}}}, {"name": "StatefulPartitionedCall/model_1/bidirectional_8/backward_lstm_8/PartitionedCall/while/cond/_127/while/Less", "op": "Less", "input": ["StatefulPartitionedCall/model_1/bidirectional_8/backward_lstm_8/PartitionedCall/while/merge/_142", "StatefulPartitionedCall/model_1/bidirectional_8/backward_lstm_8/PartitionedCall/while/merge/_146", "^StatefulPartitionedCall/model_1/bidirectional_8/backward_lstm_8/PartitionedCall/while/merge/_140"], "attr": {"T": {"type": "DT_INT32"}}}, {"name": "StatefulPartitionedCall/model_1/bidirectional_8/forward_lstm_8/PartitionedCall/while/LoopCond/_91", "op": "LoopCond", "input": ["StatefulPartitionedCall/model_1/bidirectional_8/forward_lstm_8/PartitionedCall/while/cond/_67/while/Less"]}, {"name": "StatefulPartitionedCall/model_1/bidirectional_8/backward_lstm_8/PartitionedCall/while/LoopCond/_151", "op": "LoopCond", "input": ["StatefulPartitionedCall/model_1/bidirectional_8/backward_lstm_8/PartitionedCall/while/cond/_127/while/Less"]}, {"name": "StatefulPartitionedCall/model_1/bidirectional_8/forward_lstm_8/PartitionedCall/while/Func/StatefulPartitionedCall/model_1/bidirectional_8/forward_lstm_8/PartitionedCall/input/_25_switch/_97", "op": "Switch", "input": ["StatefulPartitionedCall/model_1/bidirectional_8/forward_lstm_8/PartitionedCall/while/merge/_85", "StatefulPartitionedCall/model_1/bidirectional_8/forward_lstm_8/PartitionedCall/while/LoopCond/_91"], "attr": {"T": {"type": "DT_FLOAT"}}}, {"name": "StatefulPartitionedCall/model_1/bidirectional_8/forward_lstm_8/PartitionedCall/while/StatefulPartitionedCall/model_1/bidirectional_8/forward_lstm_8/PartitionedCall/TensorArrayUnstack/TensorListFromTensor_switch/_99", "op": "Switch", "input": ["StatefulPartitionedCall/model_1/bidirectional_8/forward_lstm_8/PartitionedCall/while/merge/_87", "StatefulPartitionedCall/model_1/bidirectional_8/forward_lstm_8/PartitionedCall/while/LoopCond/_91"], "attr": {"T": {"type": "DT_VARIANT"}}}, {"name": "StatefulPartitionedCall/model_1/bidirectional_8/forward_lstm_8/PartitionedCall/while/Func/StatefulPartitionedCall/model_1/bidirectional_8/forward_lstm_8/PartitionedCall/input/_26_switch/_100", "op": "Switch", "input": ["StatefulPartitionedCall/model_1/bidirectional_8/forward_lstm_8/PartitionedCall/while/merge/_88", "StatefulPartitionedCall/model_1/bidirectional_8/forward_lstm_8/PartitionedCall/while/LoopCond/_91"], "attr": {"T": {"type": "DT_FLOAT"}}}, {"name": "StatefulPartitionedCall/model_1/bidirectional_8/forward_lstm_8/PartitionedCall/while/Func/StatefulPartitionedCall/model_1/bidirectional_8/forward_lstm_8/PartitionedCall/input/_24_switch/_96", "op": "Switch", "input": ["StatefulPartitionedCall/model_1/bidirectional_8/forward_lstm_8/PartitionedCall/while/merge/_84", "StatefulPartitionedCall/model_1/bidirectional_8/forward_lstm_8/PartitionedCall/while/LoopCond/_91"], "attr": {"T": {"type": "DT_FLOAT"}}}, {"name": "StatefulPartitionedCall/model_1/bidirectional_8/forward_lstm_8/PartitionedCall/while/Func/StatefulPartitionedCall/model_1/bidirectional_8/forward_lstm_8/PartitionedCall/input/_27_switch/_101", "op": "Switch", "input": ["StatefulPartitionedCall/model_1/bidirectional_8/forward_lstm_8/PartitionedCall/while/merge/_89", "StatefulPartitionedCall/model_1/bidirectional_8/forward_lstm_8/PartitionedCall/while/LoopCond/_91"], "attr": {"T": {"type": "DT_FLOAT"}}}, {"name": "StatefulPartitionedCall/model_1/bidirectional_8/forward_lstm_8/PartitionedCall/while/Func/StatefulPartitionedCall/model_1/bidirectional_8/forward_lstm_8/PartitionedCall/input/_28_switch/_102", "op": "Switch", "input": ["StatefulPartitionedCall/model_1/bidirectional_8/forward_lstm_8/PartitionedCall/while/merge/_90", "StatefulPartitionedCall/model_1/bidirectional_8/forward_lstm_8/PartitionedCall/while/LoopCond/_91"], "attr": {"T": {"type": "DT_FLOAT"}}}, {"name": "StatefulPartitionedCall/model_1/bidirectional_8/forward_lstm_8/PartitionedCall/while/StatefulPartitionedCall/model_1/bidirectional_8/forward_lstm_8/PartitionedCall/time_switch/_94", "op": "Switch", "input": ["StatefulPartitionedCall/model_1/bidirectional_8/forward_lstm_8/PartitionedCall/while/merge/_82", "StatefulPartitionedCall/model_1/bidirectional_8/forward_lstm_8/PartitionedCall/while/LoopCond/_91"], "attr": {"T": {"type": "DT_INT32"}}}, {"name": "StatefulPartitionedCall/model_1/bidirectional_8/forward_lstm_8/PartitionedCall/while/StatefulPartitionedCall/model_1/bidirectional_8/forward_lstm_8/PartitionedCall/while/loop_counter_switch/_92", "op": "Switch", "input": ["StatefulPartitionedCall/model_1/bidirectional_8/forward_lstm_8/PartitionedCall/while/merge/_80", "StatefulPartitionedCall/model_1/bidirectional_8/forward_lstm_8/PartitionedCall/while/LoopCond/_91"], "attr": {"T": {"type": "DT_INT32"}}}, {"name": "StatefulPartitionedCall/model_1/bidirectional_8/forward_lstm_8/PartitionedCall/while/StatefulPartitionedCall/model_1/bidirectional_8/forward_lstm_8/PartitionedCall/TensorArrayV2_1_switch/_95", "op": "Switch", "input": ["StatefulPartitionedCall/model_1/bidirectional_8/forward_lstm_8/PartitionedCall/while/merge/_83", "StatefulPartitionedCall/model_1/bidirectional_8/forward_lstm_8/PartitionedCall/while/LoopCond/_91"], "attr": {"T": {"type": "DT_VARIANT"}}}, {"name": "StatefulPartitionedCall/model_1/bidirectional_8/forward_lstm_8/PartitionedCall/while/StatefulPartitionedCall/model_1/bidirectional_8/forward_lstm_8/PartitionedCall/strided_slice_switch/_98", "op": "Switch", "input": ["StatefulPartitionedCall/model_1/bidirectional_8/forward_lstm_8/PartitionedCall/while/merge/_86", "StatefulPartitionedCall/model_1/bidirectional_8/forward_lstm_8/PartitionedCall/while/LoopCond/_91"], "attr": {"T": {"type": "DT_INT32"}}}, {"name": "StatefulPartitionedCall/model_1/bidirectional_8/backward_lstm_8/PartitionedCall/while/Func/StatefulPartitionedCall/model_1/bidirectional_8/backward_lstm_8/PartitionedCall/input/_36_switch/_157", "op": "Switch", "input": ["StatefulPartitionedCall/model_1/bidirectional_8/backward_lstm_8/PartitionedCall/while/merge/_145", "StatefulPartitionedCall/model_1/bidirectional_8/backward_lstm_8/PartitionedCall/while/LoopCond/_151"], "attr": {"T": {"type": "DT_FLOAT"}}}, {"name": "StatefulPartitionedCall/model_1/bidirectional_8/backward_lstm_8/PartitionedCall/while/StatefulPartitionedCall/model_1/bidirectional_8/backward_lstm_8/PartitionedCall/TensorArrayUnstack/TensorListFromTensor_switch/_159", "op": "Switch", "input": ["StatefulPartitionedCall/model_1/bidirectional_8/backward_lstm_8/PartitionedCall/while/merge/_147", "StatefulPartitionedCall/model_1/bidirectional_8/backward_lstm_8/PartitionedCall/while/LoopCond/_151"], "attr": {"T": {"type": "DT_VARIANT"}}}, {"name": "StatefulPartitionedCall/model_1/bidirectional_8/backward_lstm_8/PartitionedCall/while/Func/StatefulPartitionedCall/model_1/bidirectional_8/backward_lstm_8/PartitionedCall/input/_37_switch/_160", "op": "Switch", "input": ["StatefulPartitionedCall/model_1/bidirectional_8/backward_lstm_8/PartitionedCall/while/merge/_148", "StatefulPartitionedCall/model_1/bidirectional_8/backward_lstm_8/PartitionedCall/while/LoopCond/_151"], "attr": {"T": {"type": "DT_FLOAT"}}}, {"name": "StatefulPartitionedCall/model_1/bidirectional_8/backward_lstm_8/PartitionedCall/while/Func/StatefulPartitionedCall/model_1/bidirectional_8/backward_lstm_8/PartitionedCall/input/_35_switch/_156", "op": "Switch", "input": ["StatefulPartitionedCall/model_1/bidirectional_8/backward_lstm_8/PartitionedCall/while/merge/_144", "StatefulPartitionedCall/model_1/bidirectional_8/backward_lstm_8/PartitionedCall/while/LoopCond/_151"], "attr": {"T": {"type": "DT_FLOAT"}}}, {"name": "StatefulPartitionedCall/model_1/bidirectional_8/backward_lstm_8/PartitionedCall/while/Func/StatefulPartitionedCall/model_1/bidirectional_8/backward_lstm_8/PartitionedCall/input/_38_switch/_161", "op": "Switch", "input": ["StatefulPartitionedCall/model_1/bidirectional_8/backward_lstm_8/PartitionedCall/while/merge/_149", "StatefulPartitionedCall/model_1/bidirectional_8/backward_lstm_8/PartitionedCall/while/LoopCond/_151"], "attr": {"T": {"type": "DT_FLOAT"}}}, {"name": "StatefulPartitionedCall/model_1/bidirectional_8/backward_lstm_8/PartitionedCall/while/Func/StatefulPartitionedCall/model_1/bidirectional_8/backward_lstm_8/PartitionedCall/input/_39_switch/_162", "op": "Switch", "input": ["StatefulPartitionedCall/model_1/bidirectional_8/backward_lstm_8/PartitionedCall/while/merge/_150", "StatefulPartitionedCall/model_1/bidirectional_8/backward_lstm_8/PartitionedCall/while/LoopCond/_151"], "attr": {"T": {"type": "DT_FLOAT"}}}, {"name": "StatefulPartitionedCall/model_1/bidirectional_8/backward_lstm_8/PartitionedCall/while/StatefulPartitionedCall/model_1/bidirectional_8/backward_lstm_8/PartitionedCall/time_switch/_154", "op": "Switch", "input": ["StatefulPartitionedCall/model_1/bidirectional_8/backward_lstm_8/PartitionedCall/while/merge/_142", "StatefulPartitionedCall/model_1/bidirectional_8/backward_lstm_8/PartitionedCall/while/LoopCond/_151"], "attr": {"T": {"type": "DT_INT32"}}}, {"name": "StatefulPartitionedCall/model_1/bidirectional_8/backward_lstm_8/PartitionedCall/while/StatefulPartitionedCall/model_1/bidirectional_8/backward_lstm_8/PartitionedCall/while/loop_counter_switch/_152", "op": "Switch", "input": ["StatefulPartitionedCall/model_1/bidirectional_8/backward_lstm_8/PartitionedCall/while/merge/_140", "StatefulPartitionedCall/model_1/bidirectional_8/backward_lstm_8/PartitionedCall/while/LoopCond/_151"], "attr": {"T": {"type": "DT_INT32"}}}, {"name": "StatefulPartitionedCall/model_1/bidirectional_8/backward_lstm_8/PartitionedCall/while/StatefulPartitionedCall/model_1/bidirectional_8/backward_lstm_8/PartitionedCall/TensorArrayV2_1_switch/_155", "op": "Switch", "input": ["StatefulPartitionedCall/model_1/bidirectional_8/backward_lstm_8/PartitionedCall/while/merge/_143", "StatefulPartitionedCall/model_1/bidirectional_8/backward_lstm_8/PartitionedCall/while/LoopCond/_151"], "attr": {"T": {"type": "DT_VARIANT"}}}, {"name": "StatefulPartitionedCall/model_1/bidirectional_8/backward_lstm_8/PartitionedCall/while/StatefulPartitionedCall/model_1/bidirectional_8/backward_lstm_8/PartitionedCall/strided_slice_switch/_158", "op": "Switch", "input": ["StatefulPartitionedCall/model_1/bidirectional_8/backward_lstm_8/PartitionedCall/while/merge/_146", "StatefulPartitionedCall/model_1/bidirectional_8/backward_lstm_8/PartitionedCall/while/LoopCond/_151"], "attr": {"T": {"type": "DT_INT32"}}}, {"name": "StatefulPartitionedCall/model_1/bidirectional_8/forward_lstm_8/PartitionedCall/while/loop_body_control/_103", "op": "Identity", "input": ["StatefulPartitionedCall/model_1/bidirectional_8/forward_lstm_8/PartitionedCall/while/StatefulPartitionedCall/model_1/bidirectional_8/forward_lstm_8/PartitionedCall/while/loop_counter_switch/_92:1"], "attr": {"_has_manual_control_dependencies": {"b": true}, "T": {"type": "DT_INT32"}}}, {"name": "StatefulPartitionedCall/model_1/bidirectional_8/forward_lstm_8/PartitionedCall/while/exit/_107", "op": "Exit", "input": ["StatefulPartitionedCall/model_1/bidirectional_8/forward_lstm_8/PartitionedCall/while/StatefulPartitionedCall/model_1/bidirectional_8/forward_lstm_8/PartitionedCall/TensorArrayV2_1_switch/_95"], "attr": {"T": {"type": "DT_VARIANT"}}}, {"name": "StatefulPartitionedCall/model_1/bidirectional_8/backward_lstm_8/PartitionedCall/while/loop_body_control/_163", "op": "Identity", "input": ["StatefulPartitionedCall/model_1/bidirectional_8/backward_lstm_8/PartitionedCall/while/StatefulPartitionedCall/model_1/bidirectional_8/backward_lstm_8/PartitionedCall/while/loop_counter_switch/_152:1"], "attr": {"_has_manual_control_dependencies": {"b": true}, "T": {"type": "DT_INT32"}}}, {"name": "StatefulPartitionedCall/model_1/bidirectional_8/backward_lstm_8/PartitionedCall/while/exit/_167", "op": "Exit", "input": ["StatefulPartitionedCall/model_1/bidirectional_8/backward_lstm_8/PartitionedCall/while/StatefulPartitionedCall/model_1/bidirectional_8/backward_lstm_8/PartitionedCall/TensorArrayV2_1_switch/_155"], "attr": {"T": {"type": "DT_VARIANT"}}}, {"name": "StatefulPartitionedCall/model_1/bidirectional_8/forward_lstm_8/PartitionedCall/while/body/_68/while/split/split_dim", "op": "Const", "input": ["^StatefulPartitionedCall/model_1/bidirectional_8/forward_lstm_8/PartitionedCall/while/loop_body_control/_103"], "attr": {"value": {"tensor": {"dtype": "DT_INT32", "tensorShape": {}}}, "dtype": {"type": "DT_INT32"}}}, {"name": "StatefulPartitionedCall/model_1/bidirectional_8/forward_lstm_8/PartitionedCall/while/next_iteration/_123", "op": "NextIteration", "input": ["StatefulPartitionedCall/model_1/bidirectional_8/forward_lstm_8/PartitionedCall/while/StatefulPartitionedCall/model_1/bidirectional_8/forward_lstm_8/PartitionedCall/TensorArrayUnstack/TensorListFromTensor_switch/_99:1", "^StatefulPartitionedCall/model_1/bidirectional_8/forward_lstm_8/PartitionedCall/while/loop_body_control/_103"], "attr": {"T": {"type": "DT_VARIANT"}}}, {"name": "StatefulPartitionedCall/model_1/bidirectional_8/forward_lstm_8/PartitionedCall/while/body/_68/while/TensorArrayV2Read/TensorListGetItem/element_shape", "op": "Const", "input": ["^StatefulPartitionedCall/model_1/bidirectional_8/forward_lstm_8/PartitionedCall/while/loop_body_control/_103"], "attr": {"value": {"tensor": {"dtype": "DT_INT32", "tensorShape": {"dim": [{"size": "2"}]}}}, "dtype": {"type": "DT_INT32"}}}, {"name": "StatefulPartitionedCall/model_1/bidirectional_8/forward_lstm_8/PartitionedCall/while/next_iteration/_124", "op": "NextIteration", "input": ["StatefulPartitionedCall/model_1/bidirectional_8/forward_lstm_8/PartitionedCall/while/Func/StatefulPartitionedCall/model_1/bidirectional_8/forward_lstm_8/PartitionedCall/input/_26_switch/_100:1", "^StatefulPartitionedCall/model_1/bidirectional_8/forward_lstm_8/PartitionedCall/while/loop_body_control/_103"], "attr": {"T": {"type": "DT_FLOAT"}}}, {"name": "StatefulPartitionedCall/model_1/bidirectional_8/forward_lstm_8/PartitionedCall/while/next_iteration/_125", "op": "NextIteration", "input": ["StatefulPartitionedCall/model_1/bidirectional_8/forward_lstm_8/PartitionedCall/while/Func/StatefulPartitionedCall/model_1/bidirectional_8/forward_lstm_8/PartitionedCall/input/_27_switch/_101:1", "^StatefulPartitionedCall/model_1/bidirectional_8/forward_lstm_8/PartitionedCall/while/loop_body_control/_103"], "attr": {"T": {"type": "DT_FLOAT"}}}, {"name": "StatefulPartitionedCall/model_1/bidirectional_8/forward_lstm_8/PartitionedCall/while/body/_68/while/MatMul_1", "op": "MatMul", "input": ["StatefulPartitionedCall/model_1/bidirectional_8/forward_lstm_8/PartitionedCall/while/Func/StatefulPartitionedCall/model_1/bidirectional_8/forward_lstm_8/PartitionedCall/input/_24_switch/_96:1", "StatefulPartitionedCall/model_1/bidirectional_8/forward_lstm_8/PartitionedCall/while/Func/StatefulPartitionedCall/model_1/bidirectional_8/forward_lstm_8/PartitionedCall/input/_27_switch/_101:1", "^StatefulPartitionedCall/model_1/bidirectional_8/forward_lstm_8/PartitionedCall/while/loop_body_control/_103"], "device": "/device:CPU:0", "attr": {"transpose_a": {"b": false}, "transpose_b": {"b": false}, "T": {"type": "DT_FLOAT"}}}, {"name": "StatefulPartitionedCall/model_1/bidirectional_8/forward_lstm_8/PartitionedCall/while/next_iteration/_126", "op": "NextIteration", "input": ["StatefulPartitionedCall/model_1/bidirectional_8/forward_lstm_8/PartitionedCall/while/Func/StatefulPartitionedCall/model_1/bidirectional_8/forward_lstm_8/PartitionedCall/input/_28_switch/_102:1", "^StatefulPartitionedCall/model_1/bidirectional_8/forward_lstm_8/PartitionedCall/while/loop_body_control/_103"], "attr": {"T": {"type": "DT_FLOAT"}}}, {"name": "Func/StatefulPartitionedCall/model_1/bidirectional_8/forward_lstm_8/PartitionedCall/while/body/_68/input/_323", "op": "Identity", "input": ["StatefulPartitionedCall/model_1/bidirectional_8/forward_lstm_8/PartitionedCall/while/StatefulPartitionedCall/model_1/bidirectional_8/forward_lstm_8/PartitionedCall/time_switch/_94:1", "^StatefulPartitionedCall/model_1/bidirectional_8/forward_lstm_8/PartitionedCall/while/loop_body_control/_103"], "attr": {"T": {"type": "DT_INT32"}}}, {"name": "StatefulPartitionedCall/model_1/bidirectional_8/forward_lstm_8/PartitionedCall/while/body/_68/while/add_2/y", "op": "Const", "input": ["^StatefulPartitionedCall/model_1/bidirectional_8/forward_lstm_8/PartitionedCall/while/loop_body_control/_103"], "attr": {"dtype": {"type": "DT_INT32"}, "value": {"tensor": {"dtype": "DT_INT32", "tensorShape": {}}}}}, {"name": "StatefulPartitionedCall/model_1/bidirectional_8/forward_lstm_8/PartitionedCall/while/body/_68/while/add_3/y", "op": "Const", "input": ["^StatefulPartitionedCall/model_1/bidirectional_8/forward_lstm_8/PartitionedCall/while/loop_body_control/_103"], "attr": {"value": {"tensor": {"dtype": "DT_INT32", "tensorShape": {}}}, "dtype": {"type": "DT_INT32"}}}, {"name": "StatefulPartitionedCall/model_1/bidirectional_8/forward_lstm_8/PartitionedCall/while/next_iteration/_122", "op": "NextIteration", "input": ["StatefulPartitionedCall/model_1/bidirectional_8/forward_lstm_8/PartitionedCall/while/StatefulPartitionedCall/model_1/bidirectional_8/forward_lstm_8/PartitionedCall/strided_slice_switch/_98:1", "^StatefulPartitionedCall/model_1/bidirectional_8/forward_lstm_8/PartitionedCall/while/loop_body_control/_103"], "attr": {"T": {"type": "DT_INT32"}}}, {"name": "StatefulPartitionedCall/model_1/bidirectional_8/forward_lstm_8/PartitionedCall/TensorArrayV2Stack/TensorListStack", "op": "TensorListStack", "input": ["StatefulPartitionedCall/model_1/bidirectional_8/forward_lstm_8/PartitionedCall/while/exit/_107", "StatefulPartitionedCall/model_1/bidirectional_8/forward_lstm_8/PartitionedCall/TensorArrayV2Stack/TensorListStack/element_shape"], "attr": {"element_dtype": {"type": "DT_FLOAT"}, "num_elements": {"i": "-1"}}}, {"name": "StatefulPartitionedCall/model_1/bidirectional_8/backward_lstm_8/PartitionedCall/while/body/_128/while/split/split_dim", "op": "Const", "input": ["^StatefulPartitionedCall/model_1/bidirectional_8/backward_lstm_8/PartitionedCall/while/loop_body_control/_163"], "attr": {"value": {"tensor": {"dtype": "DT_INT32", "tensorShape": {}}}, "dtype": {"type": "DT_INT32"}}}, {"name": "StatefulPartitionedCall/model_1/bidirectional_8/backward_lstm_8/PartitionedCall/while/next_iteration/_183", "op": "NextIteration", "input": ["StatefulPartitionedCall/model_1/bidirectional_8/backward_lstm_8/PartitionedCall/while/StatefulPartitionedCall/model_1/bidirectional_8/backward_lstm_8/PartitionedCall/TensorArrayUnstack/TensorListFromTensor_switch/_159:1", "^StatefulPartitionedCall/model_1/bidirectional_8/backward_lstm_8/PartitionedCall/while/loop_body_control/_163"], "attr": {"T": {"type": "DT_VARIANT"}}}, {"name": "StatefulPartitionedCall/model_1/bidirectional_8/backward_lstm_8/PartitionedCall/while/body/_128/while/TensorArrayV2Read/TensorListGetItem/element_shape", "op": "Const", "input": ["^StatefulPartitionedCall/model_1/bidirectional_8/backward_lstm_8/PartitionedCall/while/loop_body_control/_163"], "attr": {"dtype": {"type": "DT_INT32"}, "value": {"tensor": {"dtype": "DT_INT32", "tensorShape": {"dim": [{"size": "2"}]}}}}}, {"name": "StatefulPartitionedCall/model_1/bidirectional_8/backward_lstm_8/PartitionedCall/while/next_iteration/_184", "op": "NextIteration", "input": ["StatefulPartitionedCall/model_1/bidirectional_8/backward_lstm_8/PartitionedCall/while/Func/StatefulPartitionedCall/model_1/bidirectional_8/backward_lstm_8/PartitionedCall/input/_37_switch/_160:1", "^StatefulPartitionedCall/model_1/bidirectional_8/backward_lstm_8/PartitionedCall/while/loop_body_control/_163"], "attr": {"T": {"type": "DT_FLOAT"}}}, {"name": "StatefulPartitionedCall/model_1/bidirectional_8/backward_lstm_8/PartitionedCall/while/next_iteration/_185", "op": "NextIteration", "input": ["StatefulPartitionedCall/model_1/bidirectional_8/backward_lstm_8/PartitionedCall/while/Func/StatefulPartitionedCall/model_1/bidirectional_8/backward_lstm_8/PartitionedCall/input/_38_switch/_161:1", "^StatefulPartitionedCall/model_1/bidirectional_8/backward_lstm_8/PartitionedCall/while/loop_body_control/_163"], "attr": {"T": {"type": "DT_FLOAT"}}}, {"name": "StatefulPartitionedCall/model_1/bidirectional_8/backward_lstm_8/PartitionedCall/while/body/_128/while/MatMul_1", "op": "MatMul", "input": ["StatefulPartitionedCall/model_1/bidirectional_8/backward_lstm_8/PartitionedCall/while/Func/StatefulPartitionedCall/model_1/bidirectional_8/backward_lstm_8/PartitionedCall/input/_35_switch/_156:1", "StatefulPartitionedCall/model_1/bidirectional_8/backward_lstm_8/PartitionedCall/while/Func/StatefulPartitionedCall/model_1/bidirectional_8/backward_lstm_8/PartitionedCall/input/_38_switch/_161:1", "^StatefulPartitionedCall/model_1/bidirectional_8/backward_lstm_8/PartitionedCall/while/loop_body_control/_163"], "device": "/device:CPU:0", "attr": {"transpose_a": {"b": false}, "T": {"type": "DT_FLOAT"}, "transpose_b": {"b": false}}}, {"name": "StatefulPartitionedCall/model_1/bidirectional_8/backward_lstm_8/PartitionedCall/while/next_iteration/_186", "op": "NextIteration", "input": ["StatefulPartitionedCall/model_1/bidirectional_8/backward_lstm_8/PartitionedCall/while/Func/StatefulPartitionedCall/model_1/bidirectional_8/backward_lstm_8/PartitionedCall/input/_39_switch/_162:1", "^StatefulPartitionedCall/model_1/bidirectional_8/backward_lstm_8/PartitionedCall/while/loop_body_control/_163"], "attr": {"T": {"type": "DT_FLOAT"}}}, {"name": "Func/StatefulPartitionedCall/model_1/bidirectional_8/backward_lstm_8/PartitionedCall/while/body/_128/input/_360", "op": "Identity", "input": ["StatefulPartitionedCall/model_1/bidirectional_8/backward_lstm_8/PartitionedCall/while/StatefulPartitionedCall/model_1/bidirectional_8/backward_lstm_8/PartitionedCall/time_switch/_154:1", "^StatefulPartitionedCall/model_1/bidirectional_8/backward_lstm_8/PartitionedCall/while/loop_body_control/_163"], "attr": {"T": {"type": "DT_INT32"}}}, {"name": "StatefulPartitionedCall/model_1/bidirectional_8/backward_lstm_8/PartitionedCall/while/body/_128/while/add_2/y", "op": "Const", "input": ["^StatefulPartitionedCall/model_1/bidirectional_8/backward_lstm_8/PartitionedCall/while/loop_body_control/_163"], "attr": {"dtype": {"type": "DT_INT32"}, "value": {"tensor": {"dtype": "DT_INT32", "tensorShape": {}}}}}, {"name": "StatefulPartitionedCall/model_1/bidirectional_8/backward_lstm_8/PartitionedCall/while/body/_128/while/add_3/y", "op": "Const", "input": ["^StatefulPartitionedCall/model_1/bidirectional_8/backward_lstm_8/PartitionedCall/while/loop_body_control/_163"], "attr": {"dtype": {"type": "DT_INT32"}, "value": {"tensor": {"dtype": "DT_INT32", "tensorShape": {}}}}}, {"name": "StatefulPartitionedCall/model_1/bidirectional_8/backward_lstm_8/PartitionedCall/while/next_iteration/_182", "op": "NextIteration", "input": ["StatefulPartitionedCall/model_1/bidirectional_8/backward_lstm_8/PartitionedCall/while/StatefulPartitionedCall/model_1/bidirectional_8/backward_lstm_8/PartitionedCall/strided_slice_switch/_158:1", "^StatefulPartitionedCall/model_1/bidirectional_8/backward_lstm_8/PartitionedCall/while/loop_body_control/_163"], "attr": {"T": {"type": "DT_INT32"}}}, {"name": "StatefulPartitionedCall/model_1/bidirectional_8/backward_lstm_8/PartitionedCall/TensorArrayV2Stack/TensorListStack", "op": "TensorListStack", "input": ["StatefulPartitionedCall/model_1/bidirectional_8/backward_lstm_8/PartitionedCall/while/exit/_167", "StatefulPartitionedCall/model_1/bidirectional_8/backward_lstm_8/PartitionedCall/TensorArrayV2Stack/TensorListStack/element_shape"], "attr": {"num_elements": {"i": "-1"}, "element_dtype": {"type": "DT_FLOAT"}}}, {"name": "StatefulPartitionedCall/model_1/bidirectional_8/forward_lstm_8/PartitionedCall/while/body/_68/while/TensorArrayV2Read/TensorListGetItem", "op": "TensorListGetItem", "input": ["StatefulPartitionedCall/model_1/bidirectional_8/forward_lstm_8/PartitionedCall/while/StatefulPartitionedCall/model_1/bidirectional_8/forward_lstm_8/PartitionedCall/TensorArrayUnstack/TensorListFromTensor_switch/_99:1", "Func/StatefulPartitionedCall/model_1/bidirectional_8/forward_lstm_8/PartitionedCall/while/body/_68/input/_323", "StatefulPartitionedCall/model_1/bidirectional_8/forward_lstm_8/PartitionedCall/while/body/_68/while/TensorArrayV2Read/TensorListGetItem/element_shape"], "attr": {"element_dtype": {"type": "DT_FLOAT"}}}, {"name": "StatefulPartitionedCall/model_1/bidirectional_8/forward_lstm_8/PartitionedCall/while/body/_68/while/add_2", "op": "AddV2", "input": ["Func/StatefulPartitionedCall/model_1/bidirectional_8/forward_lstm_8/PartitionedCall/while/body/_68/input/_323", "StatefulPartitionedCall/model_1/bidirectional_8/forward_lstm_8/PartitionedCall/while/body/_68/while/add_2/y"], "attr": {"T": {"type": "DT_INT32"}}}, {"name": "StatefulPartitionedCall/model_1/bidirectional_8/forward_lstm_8/PartitionedCall/while/body/_68/while/add_3", "op": "AddV2", "input": ["StatefulPartitionedCall/model_1/bidirectional_8/forward_lstm_8/PartitionedCall/while/StatefulPartitionedCall/model_1/bidirectional_8/forward_lstm_8/PartitionedCall/while/loop_counter_switch/_92:1", "StatefulPartitionedCall/model_1/bidirectional_8/forward_lstm_8/PartitionedCall/while/body/_68/while/add_3/y"], "attr": {"T": {"type": "DT_INT32"}}}, {"name": "StatefulPartitionedCall/model_1/bidirectional_8/forward_lstm_8/PartitionedCall/transpose_1", "op": "Transpose", "input": ["StatefulPartitionedCall/model_1/bidirectional_8/forward_lstm_8/PartitionedCall/TensorArrayV2Stack/TensorListStack", "StatefulPartitionedCall/model_1/bidirectional_8/forward_lstm_8/PartitionedCall/transpose_1/perm"], "attr": {"T": {"type": "DT_FLOAT"}, "Tperm": {"type": "DT_INT32"}}}, {"name": "StatefulPartitionedCall/model_1/bidirectional_8/backward_lstm_8/PartitionedCall/while/body/_128/while/TensorArrayV2Read/TensorListGetItem", "op": "TensorListGetItem", "input": ["StatefulPartitionedCall/model_1/bidirectional_8/backward_lstm_8/PartitionedCall/while/StatefulPartitionedCall/model_1/bidirectional_8/backward_lstm_8/PartitionedCall/TensorArrayUnstack/TensorListFromTensor_switch/_159:1", "Func/StatefulPartitionedCall/model_1/bidirectional_8/backward_lstm_8/PartitionedCall/while/body/_128/input/_360", "StatefulPartitionedCall/model_1/bidirectional_8/backward_lstm_8/PartitionedCall/while/body/_128/while/TensorArrayV2Read/TensorListGetItem/element_shape"], "attr": {"element_dtype": {"type": "DT_FLOAT"}}}, {"name": "StatefulPartitionedCall/model_1/bidirectional_8/backward_lstm_8/PartitionedCall/while/body/_128/while/add_2", "op": "AddV2", "input": ["Func/StatefulPartitionedCall/model_1/bidirectional_8/backward_lstm_8/PartitionedCall/while/body/_128/input/_360", "StatefulPartitionedCall/model_1/bidirectional_8/backward_lstm_8/PartitionedCall/while/body/_128/while/add_2/y"], "attr": {"T": {"type": "DT_INT32"}}}, {"name": "StatefulPartitionedCall/model_1/bidirectional_8/backward_lstm_8/PartitionedCall/while/body/_128/while/add_3", "op": "AddV2", "input": ["StatefulPartitionedCall/model_1/bidirectional_8/backward_lstm_8/PartitionedCall/while/StatefulPartitionedCall/model_1/bidirectional_8/backward_lstm_8/PartitionedCall/while/loop_counter_switch/_152:1", "StatefulPartitionedCall/model_1/bidirectional_8/backward_lstm_8/PartitionedCall/while/body/_128/while/add_3/y"], "attr": {"T": {"type": "DT_INT32"}}}, {"name": "StatefulPartitionedCall/model_1/bidirectional_8/backward_lstm_8/PartitionedCall/transpose_1", "op": "Transpose", "input": ["StatefulPartitionedCall/model_1/bidirectional_8/backward_lstm_8/PartitionedCall/TensorArrayV2Stack/TensorListStack", "StatefulPartitionedCall/model_1/bidirectional_8/backward_lstm_8/PartitionedCall/transpose_1/perm"], "attr": {"T": {"type": "DT_FLOAT"}, "Tperm": {"type": "DT_INT32"}}}, {"name": "StatefulPartitionedCall/model_1/bidirectional_8/forward_lstm_8/PartitionedCall/while/body/_68/while/MatMul", "op": "MatMul", "input": ["StatefulPartitionedCall/model_1/bidirectional_8/forward_lstm_8/PartitionedCall/while/body/_68/while/TensorArrayV2Read/TensorListGetItem", "StatefulPartitionedCall/model_1/bidirectional_8/forward_lstm_8/PartitionedCall/while/Func/StatefulPartitionedCall/model_1/bidirectional_8/forward_lstm_8/PartitionedCall/input/_26_switch/_100:1"], "device": "/device:CPU:0", "attr": {"transpose_a": {"b": false}, "transpose_b": {"b": false}, "T": {"type": "DT_FLOAT"}}}, {"name": "StatefulPartitionedCall/model_1/bidirectional_8/forward_lstm_8/PartitionedCall/while/next_iteration/_118", "op": "NextIteration", "input": ["StatefulPartitionedCall/model_1/bidirectional_8/forward_lstm_8/PartitionedCall/while/body/_68/while/add_2", "^StatefulPartitionedCall/model_1/bidirectional_8/forward_lstm_8/PartitionedCall/while/loop_body_control/_103"], "attr": {"T": {"type": "DT_INT32"}}}, {"name": "StatefulPartitionedCall/model_1/bidirectional_8/forward_lstm_8/PartitionedCall/while/next_iteration/_116", "op": "NextIteration", "input": ["StatefulPartitionedCall/model_1/bidirectional_8/forward_lstm_8/PartitionedCall/while/body/_68/while/add_3", "^StatefulPartitionedCall/model_1/bidirectional_8/forward_lstm_8/PartitionedCall/while/loop_body_control/_103"], "attr": {"T": {"type": "DT_INT32"}}}, {"name": "StatefulPartitionedCall/model_1/bidirectional_8/backward_lstm_8/PartitionedCall/while/body/_128/while/MatMul", "op": "MatMul", "input": ["StatefulPartitionedCall/model_1/bidirectional_8/backward_lstm_8/PartitionedCall/while/body/_128/while/TensorArrayV2Read/TensorListGetItem", "StatefulPartitionedCall/model_1/bidirectional_8/backward_lstm_8/PartitionedCall/while/Func/StatefulPartitionedCall/model_1/bidirectional_8/backward_lstm_8/PartitionedCall/input/_37_switch/_160:1"], "device": "/device:CPU:0", "attr": {"transpose_a": {"b": false}, "transpose_b": {"b": false}, "T": {"type": "DT_FLOAT"}}}, {"name": "StatefulPartitionedCall/model_1/bidirectional_8/backward_lstm_8/PartitionedCall/while/next_iteration/_178", "op": "NextIteration", "input": ["StatefulPartitionedCall/model_1/bidirectional_8/backward_lstm_8/PartitionedCall/while/body/_128/while/add_2", "^StatefulPartitionedCall/model_1/bidirectional_8/backward_lstm_8/PartitionedCall/while/loop_body_control/_163"], "attr": {"T": {"type": "DT_INT32"}}}, {"name": "StatefulPartitionedCall/model_1/bidirectional_8/backward_lstm_8/PartitionedCall/while/next_iteration/_176", "op": "NextIteration", "input": ["StatefulPartitionedCall/model_1/bidirectional_8/backward_lstm_8/PartitionedCall/while/body/_128/while/add_3", "^StatefulPartitionedCall/model_1/bidirectional_8/backward_lstm_8/PartitionedCall/while/loop_body_control/_163"], "attr": {"T": {"type": "DT_INT32"}}}, {"name": "StatefulPartitionedCall/model_1/bidirectional_8/ReverseV2", "op": "ReverseV2", "input": ["StatefulPartitionedCall/model_1/bidirectional_8/backward_lstm_8/PartitionedCall/transpose_1", "StatefulPartitionedCall/model_1/bidirectional_8/ReverseV2/axis"], "attr": {"Tidx": {"type": "DT_INT32"}, "T": {"type": "DT_FLOAT"}}}, {"name": "StatefulPartitionedCall/model_1/bidirectional_8/forward_lstm_8/PartitionedCall/while/body/_68/while/add", "op": "AddV2", "input": ["StatefulPartitionedCall/model_1/bidirectional_8/forward_lstm_8/PartitionedCall/while/body/_68/while/MatMul", "StatefulPartitionedCall/model_1/bidirectional_8/forward_lstm_8/PartitionedCall/while/body/_68/while/MatMul_1"], "attr": {"T": {"type": "DT_FLOAT"}}}, {"name": "StatefulPartitionedCall/model_1/bidirectional_8/backward_lstm_8/PartitionedCall/while/body/_128/while/add", "op": "AddV2", "input": ["StatefulPartitionedCall/model_1/bidirectional_8/backward_lstm_8/PartitionedCall/while/body/_128/while/MatMul", "StatefulPartitionedCall/model_1/bidirectional_8/backward_lstm_8/PartitionedCall/while/body/_128/while/MatMul_1"], "attr": {"T": {"type": "DT_FLOAT"}}}, {"name": "StatefulPartitionedCall/model_1/bidirectional_8/concat", "op": "ConcatV2", "input": ["StatefulPartitionedCall/model_1/bidirectional_8/forward_lstm_8/PartitionedCall/transpose_1", "StatefulPartitionedCall/model_1/bidirectional_8/ReverseV2", "StatefulPartitionedCall/model_1/bidirectional_8/concat/axis"], "attr": {"Tidx": {"type": "DT_INT32"}, "N": {"i": "2"}, "T": {"type": "DT_FLOAT"}}}, {"name": "StatefulPartitionedCall/model_1/bidirectional_8/forward_lstm_8/PartitionedCall/while/body/_68/while/BiasAdd", "op": "BiasAdd", "input": ["StatefulPartitionedCall/model_1/bidirectional_8/forward_lstm_8/PartitionedCall/while/body/_68/while/add", "StatefulPartitionedCall/model_1/bidirectional_8/forward_lstm_8/PartitionedCall/while/Func/StatefulPartitionedCall/model_1/bidirectional_8/forward_lstm_8/PartitionedCall/input/_28_switch/_102:1"], "attr": {"T": {"type": "DT_FLOAT"}, "data_format": {"s": "TkhXQw=="}}}, {"name": "StatefulPartitionedCall/model_1/bidirectional_8/backward_lstm_8/PartitionedCall/while/body/_128/while/BiasAdd", "op": "BiasAdd", "input": ["StatefulPartitionedCall/model_1/bidirectional_8/backward_lstm_8/PartitionedCall/while/body/_128/while/add", "StatefulPartitionedCall/model_1/bidirectional_8/backward_lstm_8/PartitionedCall/while/Func/StatefulPartitionedCall/model_1/bidirectional_8/backward_lstm_8/PartitionedCall/input/_39_switch/_162:1"], "attr": {"data_format": {"s": "TkhXQw=="}, "T": {"type": "DT_FLOAT"}}}, {"name": "StatefulPartitionedCall/model_1/bidirectional_9/forward_lstm_9/Shape", "op": "Shape", "input": ["StatefulPartitionedCall/model_1/bidirectional_8/concat"], "attr": {"T": {"type": "DT_FLOAT"}, "out_type": {"type": "DT_INT32"}}}, {"name": "StatefulPartitionedCall/model_1/bidirectional_9/forward_lstm_9/PartitionedCall/transpose", "op": "Transpose", "input": ["StatefulPartitionedCall/model_1/bidirectional_8/concat", "StatefulPartitionedCall/model_1/bidirectional_9/forward_lstm_9/PartitionedCall/transpose/perm"], "attr": {"Tperm": {"type": "DT_INT32"}, "T": {"type": "DT_FLOAT"}}}, {"name": "StatefulPartitionedCall/model_1/bidirectional_9/backward_lstm_9/Shape", "op": "Shape", "input": ["StatefulPartitionedCall/model_1/bidirectional_8/concat"], "attr": {"out_type": {"type": "DT_INT32"}, "T": {"type": "DT_FLOAT"}}}, {"name": "StatefulPartitionedCall/model_1/bidirectional_9/backward_lstm_9/PartitionedCall/transpose", "op": "Transpose", "input": ["StatefulPartitionedCall/model_1/bidirectional_8/concat", "StatefulPartitionedCall/model_1/bidirectional_9/backward_lstm_9/PartitionedCall/transpose/perm"], "attr": {"T": {"type": "DT_FLOAT"}, "Tperm": {"type": "DT_INT32"}}}, {"name": "StatefulPartitionedCall/model_1/bidirectional_8/forward_lstm_8/PartitionedCall/while/body/_68/while/split", "op": "Split", "input": ["StatefulPartitionedCall/model_1/bidirectional_8/forward_lstm_8/PartitionedCall/while/body/_68/while/split/split_dim", "StatefulPartitionedCall/model_1/bidirectional_8/forward_lstm_8/PartitionedCall/while/body/_68/while/BiasAdd"], "attr": {"T": {"type": "DT_FLOAT"}, "num_split": {"i": "4"}}}, {"name": "StatefulPartitionedCall/model_1/bidirectional_8/backward_lstm_8/PartitionedCall/while/body/_128/while/split", "op": "Split", "input": ["StatefulPartitionedCall/model_1/bidirectional_8/backward_lstm_8/PartitionedCall/while/body/_128/while/split/split_dim", "StatefulPartitionedCall/model_1/bidirectional_8/backward_lstm_8/PartitionedCall/while/body/_128/while/BiasAdd"], "attr": {"num_split": {"i": "4"}, "T": {"type": "DT_FLOAT"}}}, {"name": "StatefulPartitionedCall/model_1/bidirectional_9/forward_lstm_9/strided_slice", "op": "StridedSlice", "input": ["StatefulPartitionedCall/model_1/bidirectional_9/forward_lstm_9/Shape", "StatefulPartitionedCall/model_1/bidirectional_9/forward_lstm_9/strided_slice/stack", "StatefulPartitionedCall/model_1/bidirectional_9/forward_lstm_9/strided_slice/stack_1", "StatefulPartitionedCall/model_1/bidirectional_9/forward_lstm_9/strided_slice/stack_2"], "attr": {"T": {"type": "DT_INT32"}, "new_axis_mask": {"i": "0"}, "end_mask": {"i": "0"}, "shrink_axis_mask": {"i": "1"}, "Index": {"type": "DT_INT32"}, "begin_mask": {"i": "0"}, "ellipsis_mask": {"i": "0"}}}, {"name": "StatefulPartitionedCall/model_1/bidirectional_9/forward_lstm_9/PartitionedCall/TensorArrayUnstack/TensorListFromTensor", "op": "TensorListFromTensor", "input": ["StatefulPartitionedCall/model_1/bidirectional_9/forward_lstm_9/PartitionedCall/transpose", "StatefulPartitionedCall/model_1/bidirectional_9/forward_lstm_9/PartitionedCall/TensorArrayUnstack/TensorListFromTensor/element_shape"], "attr": {"shape_type": {"type": "DT_INT32"}, "element_dtype": {"type": "DT_FLOAT"}}, "experimentalType": {"typeId": "TFT_PRODUCT", "args": [{"typeId": "TFT_ARRAY", "args": [{"typeId": "TFT_TENSOR", "args": [{"typeId": "TFT_FLOAT"}]}]}]}}, {"name": "StatefulPartitionedCall/model_1/bidirectional_9/forward_lstm_9/PartitionedCall/Shape", "op": "Shape", "input": ["StatefulPartitionedCall/model_1/bidirectional_9/forward_lstm_9/PartitionedCall/transpose"], "attr": {"out_type": {"type": "DT_INT32"}, "T": {"type": "DT_FLOAT"}}}, {"name": "StatefulPartitionedCall/model_1/bidirectional_9/backward_lstm_9/strided_slice", "op": "StridedSlice", "input": ["StatefulPartitionedCall/model_1/bidirectional_9/backward_lstm_9/Shape", "StatefulPartitionedCall/model_1/bidirectional_9/backward_lstm_9/strided_slice/stack", "StatefulPartitionedCall/model_1/bidirectional_9/backward_lstm_9/strided_slice/stack_1", "StatefulPartitionedCall/model_1/bidirectional_9/backward_lstm_9/strided_slice/stack_2"], "attr": {"begin_mask": {"i": "0"}, "end_mask": {"i": "0"}, "Index": {"type": "DT_INT32"}, "T": {"type": "DT_INT32"}, "shrink_axis_mask": {"i": "1"}, "new_axis_mask": {"i": "0"}, "ellipsis_mask": {"i": "0"}}}, {"name": "StatefulPartitionedCall/model_1/bidirectional_9/backward_lstm_9/PartitionedCall/ReverseV2", "op": "ReverseV2", "input": ["StatefulPartitionedCall/model_1/bidirectional_9/backward_lstm_9/PartitionedCall/transpose", "StatefulPartitionedCall/model_1/bidirectional_9/backward_lstm_9/PartitionedCall/ReverseV2/axis"], "attr": {"T": {"type": "DT_FLOAT"}, "Tidx": {"type": "DT_INT32"}}}, {"name": "StatefulPartitionedCall/model_1/bidirectional_9/backward_lstm_9/PartitionedCall/Shape", "op": "Shape", "input": ["StatefulPartitionedCall/model_1/bidirectional_9/backward_lstm_9/PartitionedCall/transpose"], "attr": {"out_type": {"type": "DT_INT32"}, "T": {"type": "DT_FLOAT"}}}, {"name": "StatefulPartitionedCall/model_1/bidirectional_8/forward_lstm_8/PartitionedCall/while/body/_68/while/Sigmoid", "op": "Sigmoid", "input": ["StatefulPartitionedCall/model_1/bidirectional_8/forward_lstm_8/PartitionedCall/while/body/_68/while/split"], "attr": {"T": {"type": "DT_FLOAT"}}}, {"name": "StatefulPartitionedCall/model_1/bidirectional_8/forward_lstm_8/PartitionedCall/while/body/_68/while/Sigmoid_1", "op": "Sigmoid", "input": ["StatefulPartitionedCall/model_1/bidirectional_8/forward_lstm_8/PartitionedCall/while/body/_68/while/split:1"], "attr": {"T": {"type": "DT_FLOAT"}}}, {"name": "StatefulPartitionedCall/model_1/bidirectional_8/forward_lstm_8/PartitionedCall/while/body/_68/while/Tanh", "op": "Tanh", "input": ["StatefulPartitionedCall/model_1/bidirectional_8/forward_lstm_8/PartitionedCall/while/body/_68/while/split:2"], "attr": {"T": {"type": "DT_FLOAT"}}}, {"name": "StatefulPartitionedCall/model_1/bidirectional_8/forward_lstm_8/PartitionedCall/while/body/_68/while/Sigmoid_2", "op": "Sigmoid", "input": ["StatefulPartitionedCall/model_1/bidirectional_8/forward_lstm_8/PartitionedCall/while/body/_68/while/split:3"], "attr": {"T": {"type": "DT_FLOAT"}}}, {"name": "StatefulPartitionedCall/model_1/bidirectional_8/backward_lstm_8/PartitionedCall/while/body/_128/while/Sigmoid", "op": "Sigmoid", "input": ["StatefulPartitionedCall/model_1/bidirectional_8/backward_lstm_8/PartitionedCall/while/body/_128/while/split"], "attr": {"T": {"type": "DT_FLOAT"}}}, {"name": "StatefulPartitionedCall/model_1/bidirectional_8/backward_lstm_8/PartitionedCall/while/body/_128/while/Sigmoid_1", "op": "Sigmoid", "input": ["StatefulPartitionedCall/model_1/bidirectional_8/backward_lstm_8/PartitionedCall/while/body/_128/while/split:1"], "attr": {"T": {"type": "DT_FLOAT"}}}, {"name": "StatefulPartitionedCall/model_1/bidirectional_8/backward_lstm_8/PartitionedCall/while/body/_128/while/Tanh", "op": "Tanh", "input": ["StatefulPartitionedCall/model_1/bidirectional_8/backward_lstm_8/PartitionedCall/while/body/_128/while/split:2"], "attr": {"T": {"type": "DT_FLOAT"}}}, {"name": "StatefulPartitionedCall/model_1/bidirectional_8/backward_lstm_8/PartitionedCall/while/body/_128/while/Sigmoid_2", "op": "Sigmoid", "input": ["StatefulPartitionedCall/model_1/bidirectional_8/backward_lstm_8/PartitionedCall/while/body/_128/while/split:3"], "attr": {"T": {"type": "DT_FLOAT"}}}, {"name": "StatefulPartitionedCall/model_1/bidirectional_9/forward_lstm_9/zeros_1/packed", "op": "Pack", "input": ["StatefulPartitionedCall/model_1/bidirectional_9/forward_lstm_9/strided_slice", "StatefulPartitionedCall/model_1/bidirectional_9/forward_lstm_9/zeros_1/packed/1"], "attr": {"T": {"type": "DT_INT32"}, "N": {"i": "2"}, "axis": {"i": "0"}}}, {"name": "StatefulPartitionedCall/model_1/bidirectional_9/forward_lstm_9/zeros/packed", "op": "Pack", "input": ["StatefulPartitionedCall/model_1/bidirectional_9/forward_lstm_9/strided_slice", "StatefulPartitionedCall/model_1/bidirectional_9/forward_lstm_9/zeros/packed/1"], "attr": {"T": {"type": "DT_INT32"}, "axis": {"i": "0"}, "N": {"i": "2"}}}, {"name": "StatefulPartitionedCall/model_1/bidirectional_9/forward_lstm_9/PartitionedCall/while/enter/_196", "op": "Enter", "input": ["StatefulPartitionedCall/model_1/bidirectional_9/forward_lstm_9/PartitionedCall/TensorArrayUnstack/TensorListFromTensor"], "attr": {"frame_name": {"s": "U3RhdGVmdWxQYXJ0aXRpb25lZENhbGwvbW9kZWxfMS9iaWRpcmVjdGlvbmFsXzkvZm9yd2FyZF9sc3RtXzkvUGFydGl0aW9uZWRDYWxsL3doaWxl"}, "is_constant": {"b": false}, "parallel_iterations": {"i": "32"}, "T": {"type": "DT_VARIANT"}}}, {"name": "StatefulPartitionedCall/model_1/bidirectional_9/forward_lstm_9/PartitionedCall/strided_slice", "op": "StridedSlice", "input": ["StatefulPartitionedCall/model_1/bidirectional_9/forward_lstm_9/PartitionedCall/Shape", "StatefulPartitionedCall/model_1/bidirectional_9/forward_lstm_9/PartitionedCall/strided_slice/stack", "StatefulPartitionedCall/model_1/bidirectional_9/forward_lstm_9/PartitionedCall/strided_slice/stack_1", "StatefulPartitionedCall/model_1/bidirectional_9/forward_lstm_9/PartitionedCall/strided_slice/stack_2"], "attr": {"begin_mask": {"i": "0"}, "new_axis_mask": {"i": "0"}, "Index": {"type": "DT_INT32"}, "T": {"type": "DT_INT32"}, "ellipsis_mask": {"i": "0"}, "shrink_axis_mask": {"i": "1"}, "end_mask": {"i": "0"}}}, {"name": "StatefulPartitionedCall/model_1/bidirectional_9/backward_lstm_9/zeros_1/packed", "op": "Pack", "input": ["StatefulPartitionedCall/model_1/bidirectional_9/backward_lstm_9/strided_slice", "StatefulPartitionedCall/model_1/bidirectional_9/backward_lstm_9/zeros_1/packed/1"], "attr": {"N": {"i": "2"}, "T": {"type": "DT_INT32"}, "axis": {"i": "0"}}}, {"name": "StatefulPartitionedCall/model_1/bidirectional_9/backward_lstm_9/zeros/packed", "op": "Pack", "input": ["StatefulPartitionedCall/model_1/bidirectional_9/backward_lstm_9/strided_slice", "StatefulPartitionedCall/model_1/bidirectional_9/backward_lstm_9/zeros/packed/1"], "attr": {"T": {"type": "DT_INT32"}, "axis": {"i": "0"}, "N": {"i": "2"}}}, {"name": "StatefulPartitionedCall/model_1/bidirectional_9/backward_lstm_9/PartitionedCall/TensorArrayUnstack/TensorListFromTensor", "op": "TensorListFromTensor", "input": ["StatefulPartitionedCall/model_1/bidirectional_9/backward_lstm_9/PartitionedCall/ReverseV2", "StatefulPartitionedCall/model_1/bidirectional_9/backward_lstm_9/PartitionedCall/TensorArrayUnstack/TensorListFromTensor/element_shape"], "attr": {"shape_type": {"type": "DT_INT32"}, "element_dtype": {"type": "DT_FLOAT"}}, "experimentalType": {"typeId": "TFT_PRODUCT", "args": [{"typeId": "TFT_ARRAY", "args": [{"typeId": "TFT_TENSOR", "args": [{"typeId": "TFT_FLOAT"}]}]}]}}, {"name": "StatefulPartitionedCall/model_1/bidirectional_9/backward_lstm_9/PartitionedCall/strided_slice", "op": "StridedSlice", "input": ["StatefulPartitionedCall/model_1/bidirectional_9/backward_lstm_9/PartitionedCall/Shape", "StatefulPartitionedCall/model_1/bidirectional_9/backward_lstm_9/PartitionedCall/strided_slice/stack", "StatefulPartitionedCall/model_1/bidirectional_9/backward_lstm_9/PartitionedCall/strided_slice/stack_1", "StatefulPartitionedCall/model_1/bidirectional_9/backward_lstm_9/PartitionedCall/strided_slice/stack_2"], "attr": {"end_mask": {"i": "0"}, "ellipsis_mask": {"i": "0"}, "new_axis_mask": {"i": "0"}, "Index": {"type": "DT_INT32"}, "T": {"type": "DT_INT32"}, "shrink_axis_mask": {"i": "1"}, "begin_mask": {"i": "0"}}}, {"name": "StatefulPartitionedCall/model_1/bidirectional_8/forward_lstm_8/PartitionedCall/while/body/_68/while/mul", "op": "Mul", "input": ["StatefulPartitionedCall/model_1/bidirectional_8/forward_lstm_8/PartitionedCall/while/body/_68/while/Sigmoid_1", "StatefulPartitionedCall/model_1/bidirectional_8/forward_lstm_8/PartitionedCall/while/Func/StatefulPartitionedCall/model_1/bidirectional_8/forward_lstm_8/PartitionedCall/input/_25_switch/_97:1"], "attr": {"T": {"type": "DT_FLOAT"}}}, {"name": "StatefulPartitionedCall/model_1/bidirectional_8/forward_lstm_8/PartitionedCall/while/body/_68/while/mul_1", "op": "Mul", "input": ["StatefulPartitionedCall/model_1/bidirectional_8/forward_lstm_8/PartitionedCall/while/body/_68/while/Sigmoid", "StatefulPartitionedCall/model_1/bidirectional_8/forward_lstm_8/PartitionedCall/while/body/_68/while/Tanh"], "attr": {"T": {"type": "DT_FLOAT"}}}, {"name": "StatefulPartitionedCall/model_1/bidirectional_8/backward_lstm_8/PartitionedCall/while/body/_128/while/mul", "op": "Mul", "input": ["StatefulPartitionedCall/model_1/bidirectional_8/backward_lstm_8/PartitionedCall/while/body/_128/while/Sigmoid_1", "StatefulPartitionedCall/model_1/bidirectional_8/backward_lstm_8/PartitionedCall/while/Func/StatefulPartitionedCall/model_1/bidirectional_8/backward_lstm_8/PartitionedCall/input/_36_switch/_157:1"], "attr": {"T": {"type": "DT_FLOAT"}}}, {"name": "StatefulPartitionedCall/model_1/bidirectional_8/backward_lstm_8/PartitionedCall/while/body/_128/while/mul_1", "op": "Mul", "input": ["StatefulPartitionedCall/model_1/bidirectional_8/backward_lstm_8/PartitionedCall/while/body/_128/while/Sigmoid", "StatefulPartitionedCall/model_1/bidirectional_8/backward_lstm_8/PartitionedCall/while/body/_128/while/Tanh"], "attr": {"T": {"type": "DT_FLOAT"}}}, {"name": "StatefulPartitionedCall/model_1/bidirectional_9/forward_lstm_9/zeros_1", "op": "Fill", "input": ["StatefulPartitionedCall/model_1/bidirectional_9/forward_lstm_9/zeros_1/packed", "StatefulPartitionedCall/model_1/bidirectional_9/forward_lstm_9/zeros_1/Const"], "attr": {"T": {"type": "DT_FLOAT"}, "index_type": {"type": "DT_INT32"}}}, {"name": "StatefulPartitionedCall/model_1/bidirectional_9/forward_lstm_9/zeros", "op": "Fill", "input": ["StatefulPartitionedCall/model_1/bidirectional_9/forward_lstm_9/zeros/packed", "StatefulPartitionedCall/model_1/bidirectional_9/forward_lstm_9/zeros/Const"], "attr": {"T": {"type": "DT_FLOAT"}, "index_type": {"type": "DT_INT32"}}}, {"name": "StatefulPartitionedCall/model_1/bidirectional_9/forward_lstm_9/PartitionedCall/while/merge/_207", "op": "Merge", "input": ["StatefulPartitionedCall/model_1/bidirectional_9/forward_lstm_9/PartitionedCall/while/enter/_196", "StatefulPartitionedCall/model_1/bidirectional_9/forward_lstm_9/PartitionedCall/while/next_iteration/_243"], "attr": {"N": {"i": "2"}, "T": {"type": "DT_VARIANT"}}}, {"name": "StatefulPartitionedCall/model_1/bidirectional_9/forward_lstm_9/PartitionedCall/TensorArrayV2_1", "op": "TensorListReserve", "input": ["StatefulPartitionedCall/model_1/bidirectional_9/forward_lstm_9/PartitionedCall/TensorArrayV2_1/element_shape", "StatefulPartitionedCall/model_1/bidirectional_9/forward_lstm_9/PartitionedCall/strided_slice"], "attr": {"shape_type": {"type": "DT_INT32"}, "element_dtype": {"type": "DT_FLOAT"}}, "experimentalType": {"typeId": "TFT_PRODUCT", "args": [{"typeId": "TFT_ARRAY", "args": [{"typeId": "TFT_TENSOR", "args": [{"typeId": "TFT_FLOAT"}]}]}]}}, {"name": "StatefulPartitionedCall/model_1/bidirectional_9/forward_lstm_9/PartitionedCall/while/enter/_195", "op": "Enter", "input": ["StatefulPartitionedCall/model_1/bidirectional_9/forward_lstm_9/PartitionedCall/strided_slice"], "attr": {"frame_name": {"s": "U3RhdGVmdWxQYXJ0aXRpb25lZENhbGwvbW9kZWxfMS9iaWRpcmVjdGlvbmFsXzkvZm9yd2FyZF9sc3RtXzkvUGFydGl0aW9uZWRDYWxsL3doaWxl"}, "parallel_iterations": {"i": "32"}, "T": {"type": "DT_INT32"}, "is_constant": {"b": false}}}, {"name": "StatefulPartitionedCall/model_1/bidirectional_9/backward_lstm_9/zeros_1", "op": "Fill", "input": ["StatefulPartitionedCall/model_1/bidirectional_9/backward_lstm_9/zeros_1/packed", "StatefulPartitionedCall/model_1/bidirectional_9/backward_lstm_9/zeros_1/Const"], "attr": {"index_type": {"type": "DT_INT32"}, "T": {"type": "DT_FLOAT"}}}, {"name": "StatefulPartitionedCall/model_1/bidirectional_9/backward_lstm_9/zeros", "op": "Fill", "input": ["StatefulPartitionedCall/model_1/bidirectional_9/backward_lstm_9/zeros/packed", "StatefulPartitionedCall/model_1/bidirectional_9/backward_lstm_9/zeros/Const"], "attr": {"index_type": {"type": "DT_INT32"}, "T": {"type": "DT_FLOAT"}}}, {"name": "StatefulPartitionedCall/model_1/bidirectional_9/backward_lstm_9/PartitionedCall/while/enter/_256", "op": "Enter", "input": ["StatefulPartitionedCall/model_1/bidirectional_9/backward_lstm_9/PartitionedCall/TensorArrayUnstack/TensorListFromTensor"], "attr": {"parallel_iterations": {"i": "32"}, "T": {"type": "DT_VARIANT"}, "frame_name": {"s": "U3RhdGVmdWxQYXJ0aXRpb25lZENhbGwvbW9kZWxfMS9iaWRpcmVjdGlvbmFsXzkvYmFja3dhcmRfbHN0bV85L1BhcnRpdGlvbmVkQ2FsbC93aGlsZQ=="}, "is_constant": {"b": false}}}, {"name": "StatefulPartitionedCall/model_1/bidirectional_9/backward_lstm_9/PartitionedCall/TensorArrayV2_1", "op": "TensorListReserve", "input": ["StatefulPartitionedCall/model_1/bidirectional_9/backward_lstm_9/PartitionedCall/TensorArrayV2_1/element_shape", "StatefulPartitionedCall/model_1/bidirectional_9/backward_lstm_9/PartitionedCall/strided_slice"], "attr": {"shape_type": {"type": "DT_INT32"}, "element_dtype": {"type": "DT_FLOAT"}}, "experimentalType": {"typeId": "TFT_PRODUCT", "args": [{"typeId": "TFT_ARRAY", "args": [{"typeId": "TFT_TENSOR", "args": [{"typeId": "TFT_FLOAT"}]}]}]}}, {"name": "StatefulPartitionedCall/model_1/bidirectional_9/backward_lstm_9/PartitionedCall/while/enter/_255", "op": "Enter", "input": ["StatefulPartitionedCall/model_1/bidirectional_9/backward_lstm_9/PartitionedCall/strided_slice"], "attr": {"is_constant": {"b": false}, "T": {"type": "DT_INT32"}, "frame_name": {"s": "U3RhdGVmdWxQYXJ0aXRpb25lZENhbGwvbW9kZWxfMS9iaWRpcmVjdGlvbmFsXzkvYmFja3dhcmRfbHN0bV85L1BhcnRpdGlvbmVkQ2FsbC93aGlsZQ=="}, "parallel_iterations": {"i": "32"}}}, {"name": "StatefulPartitionedCall/model_1/bidirectional_8/forward_lstm_8/PartitionedCall/while/body/_68/while/add_1", "op": "AddV2", "input": ["StatefulPartitionedCall/model_1/bidirectional_8/forward_lstm_8/PartitionedCall/while/body/_68/while/mul", "StatefulPartitionedCall/model_1/bidirectional_8/forward_lstm_8/PartitionedCall/while/body/_68/while/mul_1"], "attr": {"T": {"type": "DT_FLOAT"}}}, {"name": "StatefulPartitionedCall/model_1/bidirectional_8/backward_lstm_8/PartitionedCall/while/body/_128/while/add_1", "op": "AddV2", "input": ["StatefulPartitionedCall/model_1/bidirectional_8/backward_lstm_8/PartitionedCall/while/body/_128/while/mul", "StatefulPartitionedCall/model_1/bidirectional_8/backward_lstm_8/PartitionedCall/while/body/_128/while/mul_1"], "attr": {"T": {"type": "DT_FLOAT"}}}, {"name": "StatefulPartitionedCall/model_1/bidirectional_9/forward_lstm_9/PartitionedCall/while/enter/_194", "op": "Enter", "input": ["StatefulPartitionedCall/model_1/bidirectional_9/forward_lstm_9/zeros_1"], "attr": {"frame_name": {"s": "U3RhdGVmdWxQYXJ0aXRpb25lZENhbGwvbW9kZWxfMS9iaWRpcmVjdGlvbmFsXzkvZm9yd2FyZF9sc3RtXzkvUGFydGl0aW9uZWRDYWxsL3doaWxl"}, "T": {"type": "DT_FLOAT"}, "is_constant": {"b": false}, "parallel_iterations": {"i": "32"}}}, {"name": "StatefulPartitionedCall/model_1/bidirectional_9/forward_lstm_9/PartitionedCall/while/enter/_193", "op": "Enter", "input": ["StatefulPartitionedCall/model_1/bidirectional_9/forward_lstm_9/zeros"], "attr": {"T": {"type": "DT_FLOAT"}, "is_constant": {"b": false}, "frame_name": {"s": "U3RhdGVmdWxQYXJ0aXRpb25lZENhbGwvbW9kZWxfMS9iaWRpcmVjdGlvbmFsXzkvZm9yd2FyZF9sc3RtXzkvUGFydGl0aW9uZWRDYWxsL3doaWxl"}, "parallel_iterations": {"i": "32"}}}, {"name": "StatefulPartitionedCall/model_1/bidirectional_9/forward_lstm_9/PartitionedCall/while/enter/_192", "op": "Enter", "input": ["StatefulPartitionedCall/model_1/bidirectional_9/forward_lstm_9/PartitionedCall/TensorArrayV2_1"], "attr": {"parallel_iterations": {"i": "32"}, "T": {"type": "DT_VARIANT"}, "frame_name": {"s": "U3RhdGVmdWxQYXJ0aXRpb25lZENhbGwvbW9kZWxfMS9iaWRpcmVjdGlvbmFsXzkvZm9yd2FyZF9sc3RtXzkvUGFydGl0aW9uZWRDYWxsL3doaWxl"}, "is_constant": {"b": false}}}, {"name": "StatefulPartitionedCall/model_1/bidirectional_9/forward_lstm_9/PartitionedCall/while/merge/_206", "op": "Merge", "input": ["StatefulPartitionedCall/model_1/bidirectional_9/forward_lstm_9/PartitionedCall/while/enter/_195", "StatefulPartitionedCall/model_1/bidirectional_9/forward_lstm_9/PartitionedCall/while/next_iteration/_242"], "attr": {"N": {"i": "2"}, "T": {"type": "DT_INT32"}}}, {"name": "StatefulPartitionedCall/model_1/bidirectional_9/backward_lstm_9/PartitionedCall/while/enter/_254", "op": "Enter", "input": ["StatefulPartitionedCall/model_1/bidirectional_9/backward_lstm_9/zeros_1"], "attr": {"is_constant": {"b": false}, "T": {"type": "DT_FLOAT"}, "frame_name": {"s": "U3RhdGVmdWxQYXJ0aXRpb25lZENhbGwvbW9kZWxfMS9iaWRpcmVjdGlvbmFsXzkvYmFja3dhcmRfbHN0bV85L1BhcnRpdGlvbmVkQ2FsbC93aGlsZQ=="}, "parallel_iterations": {"i": "32"}}}, {"name": "StatefulPartitionedCall/model_1/bidirectional_9/backward_lstm_9/PartitionedCall/while/enter/_253", "op": "Enter", "input": ["StatefulPartitionedCall/model_1/bidirectional_9/backward_lstm_9/zeros"], "attr": {"parallel_iterations": {"i": "32"}, "is_constant": {"b": false}, "T": {"type": "DT_FLOAT"}, "frame_name": {"s": "U3RhdGVmdWxQYXJ0aXRpb25lZENhbGwvbW9kZWxfMS9iaWRpcmVjdGlvbmFsXzkvYmFja3dhcmRfbHN0bV85L1BhcnRpdGlvbmVkQ2FsbC93aGlsZQ=="}}}, {"name": "StatefulPartitionedCall/model_1/bidirectional_9/backward_lstm_9/PartitionedCall/while/merge/_267", "op": "Merge", "input": ["StatefulPartitionedCall/model_1/bidirectional_9/backward_lstm_9/PartitionedCall/while/enter/_256", "StatefulPartitionedCall/model_1/bidirectional_9/backward_lstm_9/PartitionedCall/while/next_iteration/_303"], "attr": {"T": {"type": "DT_VARIANT"}, "N": {"i": "2"}}}, {"name": "StatefulPartitionedCall/model_1/bidirectional_9/backward_lstm_9/PartitionedCall/while/enter/_252", "op": "Enter", "input": ["StatefulPartitionedCall/model_1/bidirectional_9/backward_lstm_9/PartitionedCall/TensorArrayV2_1"], "attr": {"T": {"type": "DT_VARIANT"}, "frame_name": {"s": "U3RhdGVmdWxQYXJ0aXRpb25lZENhbGwvbW9kZWxfMS9iaWRpcmVjdGlvbmFsXzkvYmFja3dhcmRfbHN0bV85L1BhcnRpdGlvbmVkQ2FsbC93aGlsZQ=="}, "is_constant": {"b": false}, "parallel_iterations": {"i": "32"}}}, {"name": "StatefulPartitionedCall/model_1/bidirectional_9/backward_lstm_9/PartitionedCall/while/merge/_266", "op": "Merge", "input": ["StatefulPartitionedCall/model_1/bidirectional_9/backward_lstm_9/PartitionedCall/while/enter/_255", "StatefulPartitionedCall/model_1/bidirectional_9/backward_lstm_9/PartitionedCall/while/next_iteration/_302"], "attr": {"N": {"i": "2"}, "T": {"type": "DT_INT32"}}}, {"name": "StatefulPartitionedCall/model_1/bidirectional_8/forward_lstm_8/PartitionedCall/while/body/_68/while/Tanh_1", "op": "Tanh", "input": ["StatefulPartitionedCall/model_1/bidirectional_8/forward_lstm_8/PartitionedCall/while/body/_68/while/add_1"], "attr": {"T": {"type": "DT_FLOAT"}}}, {"name": "StatefulPartitionedCall/model_1/bidirectional_8/forward_lstm_8/PartitionedCall/while/next_iteration/_121", "op": "NextIteration", "input": ["StatefulPartitionedCall/model_1/bidirectional_8/forward_lstm_8/PartitionedCall/while/body/_68/while/add_1", "^StatefulPartitionedCall/model_1/bidirectional_8/forward_lstm_8/PartitionedCall/while/loop_body_control/_103"], "attr": {"T": {"type": "DT_FLOAT"}}}, {"name": "StatefulPartitionedCall/model_1/bidirectional_8/backward_lstm_8/PartitionedCall/while/body/_128/while/Tanh_1", "op": "Tanh", "input": ["StatefulPartitionedCall/model_1/bidirectional_8/backward_lstm_8/PartitionedCall/while/body/_128/while/add_1"], "attr": {"T": {"type": "DT_FLOAT"}}}, {"name": "StatefulPartitionedCall/model_1/bidirectional_8/backward_lstm_8/PartitionedCall/while/next_iteration/_181", "op": "NextIteration", "input": ["StatefulPartitionedCall/model_1/bidirectional_8/backward_lstm_8/PartitionedCall/while/body/_128/while/add_1", "^StatefulPartitionedCall/model_1/bidirectional_8/backward_lstm_8/PartitionedCall/while/loop_body_control/_163"], "attr": {"T": {"type": "DT_FLOAT"}}}, {"name": "StatefulPartitionedCall/model_1/bidirectional_9/forward_lstm_9/PartitionedCall/while/merge/_205", "op": "Merge", "input": ["StatefulPartitionedCall/model_1/bidirectional_9/forward_lstm_9/PartitionedCall/while/enter/_194", "StatefulPartitionedCall/model_1/bidirectional_9/forward_lstm_9/PartitionedCall/while/next_iteration/_241"], "attr": {"T": {"type": "DT_FLOAT"}, "N": {"i": "2"}}}, {"name": "StatefulPartitionedCall/model_1/bidirectional_9/forward_lstm_9/PartitionedCall/while/merge/_204", "op": "Merge", "input": ["StatefulPartitionedCall/model_1/bidirectional_9/forward_lstm_9/PartitionedCall/while/enter/_193", "StatefulPartitionedCall/model_1/bidirectional_9/forward_lstm_9/PartitionedCall/while/next_iteration/_240"], "attr": {"N": {"i": "2"}, "T": {"type": "DT_FLOAT"}}}, {"name": "StatefulPartitionedCall/model_1/bidirectional_9/forward_lstm_9/PartitionedCall/while/merge/_203", "op": "Merge", "input": ["StatefulPartitionedCall/model_1/bidirectional_9/forward_lstm_9/PartitionedCall/while/enter/_192", "StatefulPartitionedCall/model_1/bidirectional_9/forward_lstm_9/PartitionedCall/while/next_iteration/_239"], "attr": {"T": {"type": "DT_VARIANT"}, "N": {"i": "2"}}}, {"name": "StatefulPartitionedCall/model_1/bidirectional_9/forward_lstm_9/PartitionedCall/while/cond/_187/while/Less", "op": "Less", "input": ["StatefulPartitionedCall/model_1/bidirectional_9/forward_lstm_9/PartitionedCall/while/merge/_202", "StatefulPartitionedCall/model_1/bidirectional_9/forward_lstm_9/PartitionedCall/while/merge/_206", "^StatefulPartitionedCall/model_1/bidirectional_9/forward_lstm_9/PartitionedCall/while/merge/_200"], "attr": {"T": {"type": "DT_INT32"}}}, {"name": "StatefulPartitionedCall/model_1/bidirectional_9/backward_lstm_9/PartitionedCall/while/merge/_265", "op": "Merge", "input": ["StatefulPartitionedCall/model_1/bidirectional_9/backward_lstm_9/PartitionedCall/while/enter/_254", "StatefulPartitionedCall/model_1/bidirectional_9/backward_lstm_9/PartitionedCall/while/next_iteration/_301"], "attr": {"T": {"type": "DT_FLOAT"}, "N": {"i": "2"}}}, {"name": "StatefulPartitionedCall/model_1/bidirectional_9/backward_lstm_9/PartitionedCall/while/merge/_264", "op": "Merge", "input": ["StatefulPartitionedCall/model_1/bidirectional_9/backward_lstm_9/PartitionedCall/while/enter/_253", "StatefulPartitionedCall/model_1/bidirectional_9/backward_lstm_9/PartitionedCall/while/next_iteration/_300"], "attr": {"N": {"i": "2"}, "T": {"type": "DT_FLOAT"}}}, {"name": "StatefulPartitionedCall/model_1/bidirectional_9/backward_lstm_9/PartitionedCall/while/merge/_263", "op": "Merge", "input": ["StatefulPartitionedCall/model_1/bidirectional_9/backward_lstm_9/PartitionedCall/while/enter/_252", "StatefulPartitionedCall/model_1/bidirectional_9/backward_lstm_9/PartitionedCall/while/next_iteration/_299"], "attr": {"N": {"i": "2"}, "T": {"type": "DT_VARIANT"}}}, {"name": "StatefulPartitionedCall/model_1/bidirectional_9/backward_lstm_9/PartitionedCall/while/cond/_247/while/Less", "op": "Less", "input": ["StatefulPartitionedCall/model_1/bidirectional_9/backward_lstm_9/PartitionedCall/while/merge/_262", "StatefulPartitionedCall/model_1/bidirectional_9/backward_lstm_9/PartitionedCall/while/merge/_266", "^StatefulPartitionedCall/model_1/bidirectional_9/backward_lstm_9/PartitionedCall/while/merge/_260"], "attr": {"T": {"type": "DT_INT32"}}}, {"name": "StatefulPartitionedCall/model_1/bidirectional_8/forward_lstm_8/PartitionedCall/while/body/_68/while/mul_2", "op": "Mul", "input": ["StatefulPartitionedCall/model_1/bidirectional_8/forward_lstm_8/PartitionedCall/while/body/_68/while/Sigmoid_2", "StatefulPartitionedCall/model_1/bidirectional_8/forward_lstm_8/PartitionedCall/while/body/_68/while/Tanh_1"], "attr": {"T": {"type": "DT_FLOAT"}}}, {"name": "StatefulPartitionedCall/model_1/bidirectional_8/backward_lstm_8/PartitionedCall/while/body/_128/while/mul_2", "op": "Mul", "input": ["StatefulPartitionedCall/model_1/bidirectional_8/backward_lstm_8/PartitionedCall/while/body/_128/while/Sigmoid_2", "StatefulPartitionedCall/model_1/bidirectional_8/backward_lstm_8/PartitionedCall/while/body/_128/while/Tanh_1"], "attr": {"T": {"type": "DT_FLOAT"}}}, {"name": "StatefulPartitionedCall/model_1/bidirectional_9/forward_lstm_9/PartitionedCall/while/LoopCond/_211", "op": "LoopCond", "input": ["StatefulPartitionedCall/model_1/bidirectional_9/forward_lstm_9/PartitionedCall/while/cond/_187/while/Less"]}, {"name": "StatefulPartitionedCall/model_1/bidirectional_9/backward_lstm_9/PartitionedCall/while/LoopCond/_271", "op": "LoopCond", "input": ["StatefulPartitionedCall/model_1/bidirectional_9/backward_lstm_9/PartitionedCall/while/cond/_247/while/Less"]}, {"name": "StatefulPartitionedCall/model_1/bidirectional_8/forward_lstm_8/PartitionedCall/while/next_iteration/_120", "op": "NextIteration", "input": ["StatefulPartitionedCall/model_1/bidirectional_8/forward_lstm_8/PartitionedCall/while/body/_68/while/mul_2", "^StatefulPartitionedCall/model_1/bidirectional_8/forward_lstm_8/PartitionedCall/while/loop_body_control/_103"], "attr": {"T": {"type": "DT_FLOAT"}}}, {"name": "StatefulPartitionedCall/model_1/bidirectional_8/forward_lstm_8/PartitionedCall/while/body/_68/while/TensorArrayV2Write/TensorListSetItem", "op": "TensorListSetItem", "input": ["StatefulPartitionedCall/model_1/bidirectional_8/forward_lstm_8/PartitionedCall/while/StatefulPartitionedCall/model_1/bidirectional_8/forward_lstm_8/PartitionedCall/TensorArrayV2_1_switch/_95:1", "Func/StatefulPartitionedCall/model_1/bidirectional_8/forward_lstm_8/PartitionedCall/while/body/_68/input/_323", "StatefulPartitionedCall/model_1/bidirectional_8/forward_lstm_8/PartitionedCall/while/body/_68/while/mul_2"], "attr": {"element_dtype": {"type": "DT_FLOAT"}}, "experimentalType": {"typeId": "TFT_PRODUCT", "args": [{"typeId": "TFT_ARRAY", "args": [{"typeId": "TFT_TENSOR", "args": [{"typeId": "TFT_FLOAT"}]}]}]}}, {"name": "StatefulPartitionedCall/model_1/bidirectional_8/backward_lstm_8/PartitionedCall/while/next_iteration/_180", "op": "NextIteration", "input": ["StatefulPartitionedCall/model_1/bidirectional_8/backward_lstm_8/PartitionedCall/while/body/_128/while/mul_2", "^StatefulPartitionedCall/model_1/bidirectional_8/backward_lstm_8/PartitionedCall/while/loop_body_control/_163"], "attr": {"T": {"type": "DT_FLOAT"}}}, {"name": "StatefulPartitionedCall/model_1/bidirectional_8/backward_lstm_8/PartitionedCall/while/body/_128/while/TensorArrayV2Write/TensorListSetItem", "op": "TensorListSetItem", "input": ["StatefulPartitionedCall/model_1/bidirectional_8/backward_lstm_8/PartitionedCall/while/StatefulPartitionedCall/model_1/bidirectional_8/backward_lstm_8/PartitionedCall/TensorArrayV2_1_switch/_155:1", "Func/StatefulPartitionedCall/model_1/bidirectional_8/backward_lstm_8/PartitionedCall/while/body/_128/input/_360", "StatefulPartitionedCall/model_1/bidirectional_8/backward_lstm_8/PartitionedCall/while/body/_128/while/mul_2"], "attr": {"element_dtype": {"type": "DT_FLOAT"}}, "experimentalType": {"typeId": "TFT_PRODUCT", "args": [{"typeId": "TFT_ARRAY", "args": [{"typeId": "TFT_TENSOR", "args": [{"typeId": "TFT_FLOAT"}]}]}]}}, {"name": "StatefulPartitionedCall/model_1/bidirectional_9/forward_lstm_9/PartitionedCall/while/Func/StatefulPartitionedCall/model_1/bidirectional_9/forward_lstm_9/PartitionedCall/input/_47_switch/_217", "op": "Switch", "input": ["StatefulPartitionedCall/model_1/bidirectional_9/forward_lstm_9/PartitionedCall/while/merge/_205", "StatefulPartitionedCall/model_1/bidirectional_9/forward_lstm_9/PartitionedCall/while/LoopCond/_211"], "attr": {"T": {"type": "DT_FLOAT"}}}, {"name": "StatefulPartitionedCall/model_1/bidirectional_9/forward_lstm_9/PartitionedCall/while/StatefulPartitionedCall/model_1/bidirectional_9/forward_lstm_9/PartitionedCall/TensorArrayUnstack/TensorListFromTensor_switch/_219", "op": "Switch", "input": ["StatefulPartitionedCall/model_1/bidirectional_9/forward_lstm_9/PartitionedCall/while/merge/_207", "StatefulPartitionedCall/model_1/bidirectional_9/forward_lstm_9/PartitionedCall/while/LoopCond/_211"], "attr": {"T": {"type": "DT_VARIANT"}}}, {"name": "StatefulPartitionedCall/model_1/bidirectional_9/forward_lstm_9/PartitionedCall/while/Func/StatefulPartitionedCall/model_1/bidirectional_9/forward_lstm_9/PartitionedCall/input/_48_switch/_220", "op": "Switch", "input": ["StatefulPartitionedCall/model_1/bidirectional_9/forward_lstm_9/PartitionedCall/while/merge/_208", "StatefulPartitionedCall/model_1/bidirectional_9/forward_lstm_9/PartitionedCall/while/LoopCond/_211"], "attr": {"T": {"type": "DT_FLOAT"}}}, {"name": "StatefulPartitionedCall/model_1/bidirectional_9/forward_lstm_9/PartitionedCall/while/Func/StatefulPartitionedCall/model_1/bidirectional_9/forward_lstm_9/PartitionedCall/input/_46_switch/_216", "op": "Switch", "input": ["StatefulPartitionedCall/model_1/bidirectional_9/forward_lstm_9/PartitionedCall/while/merge/_204", "StatefulPartitionedCall/model_1/bidirectional_9/forward_lstm_9/PartitionedCall/while/LoopCond/_211"], "attr": {"T": {"type": "DT_FLOAT"}}}, {"name": "StatefulPartitionedCall/model_1/bidirectional_9/forward_lstm_9/PartitionedCall/while/Func/StatefulPartitionedCall/model_1/bidirectional_9/forward_lstm_9/PartitionedCall/input/_49_switch/_221", "op": "Switch", "input": ["StatefulPartitionedCall/model_1/bidirectional_9/forward_lstm_9/PartitionedCall/while/merge/_209", "StatefulPartitionedCall/model_1/bidirectional_9/forward_lstm_9/PartitionedCall/while/LoopCond/_211"], "attr": {"T": {"type": "DT_FLOAT"}}}, {"name": "StatefulPartitionedCall/model_1/bidirectional_9/forward_lstm_9/PartitionedCall/while/Func/StatefulPartitionedCall/model_1/bidirectional_9/forward_lstm_9/PartitionedCall/input/_50_switch/_222", "op": "Switch", "input": ["StatefulPartitionedCall/model_1/bidirectional_9/forward_lstm_9/PartitionedCall/while/merge/_210", "StatefulPartitionedCall/model_1/bidirectional_9/forward_lstm_9/PartitionedCall/while/LoopCond/_211"], "attr": {"T": {"type": "DT_FLOAT"}}}, {"name": "StatefulPartitionedCall/model_1/bidirectional_9/forward_lstm_9/PartitionedCall/while/StatefulPartitionedCall/model_1/bidirectional_9/forward_lstm_9/PartitionedCall/time_switch/_214", "op": "Switch", "input": ["StatefulPartitionedCall/model_1/bidirectional_9/forward_lstm_9/PartitionedCall/while/merge/_202", "StatefulPartitionedCall/model_1/bidirectional_9/forward_lstm_9/PartitionedCall/while/LoopCond/_211"], "attr": {"T": {"type": "DT_INT32"}}}, {"name": "StatefulPartitionedCall/model_1/bidirectional_9/forward_lstm_9/PartitionedCall/while/StatefulPartitionedCall/model_1/bidirectional_9/forward_lstm_9/PartitionedCall/while/loop_counter_switch/_212", "op": "Switch", "input": ["StatefulPartitionedCall/model_1/bidirectional_9/forward_lstm_9/PartitionedCall/while/merge/_200", "StatefulPartitionedCall/model_1/bidirectional_9/forward_lstm_9/PartitionedCall/while/LoopCond/_211"], "attr": {"T": {"type": "DT_INT32"}}}, {"name": "StatefulPartitionedCall/model_1/bidirectional_9/forward_lstm_9/PartitionedCall/while/StatefulPartitionedCall/model_1/bidirectional_9/forward_lstm_9/PartitionedCall/TensorArrayV2_1_switch/_215", "op": "Switch", "input": ["StatefulPartitionedCall/model_1/bidirectional_9/forward_lstm_9/PartitionedCall/while/merge/_203", "StatefulPartitionedCall/model_1/bidirectional_9/forward_lstm_9/PartitionedCall/while/LoopCond/_211"], "attr": {"T": {"type": "DT_VARIANT"}}}, {"name": "StatefulPartitionedCall/model_1/bidirectional_9/forward_lstm_9/PartitionedCall/while/StatefulPartitionedCall/model_1/bidirectional_9/forward_lstm_9/PartitionedCall/strided_slice_switch/_218", "op": "Switch", "input": ["StatefulPartitionedCall/model_1/bidirectional_9/forward_lstm_9/PartitionedCall/while/merge/_206", "StatefulPartitionedCall/model_1/bidirectional_9/forward_lstm_9/PartitionedCall/while/LoopCond/_211"], "attr": {"T": {"type": "DT_INT32"}}}, {"name": "StatefulPartitionedCall/model_1/bidirectional_9/backward_lstm_9/PartitionedCall/while/Func/StatefulPartitionedCall/model_1/bidirectional_9/backward_lstm_9/PartitionedCall/input/_58_switch/_277", "op": "Switch", "input": ["StatefulPartitionedCall/model_1/bidirectional_9/backward_lstm_9/PartitionedCall/while/merge/_265", "StatefulPartitionedCall/model_1/bidirectional_9/backward_lstm_9/PartitionedCall/while/LoopCond/_271"], "attr": {"T": {"type": "DT_FLOAT"}}}, {"name": "StatefulPartitionedCall/model_1/bidirectional_9/backward_lstm_9/PartitionedCall/while/StatefulPartitionedCall/model_1/bidirectional_9/backward_lstm_9/PartitionedCall/TensorArrayUnstack/TensorListFromTensor_switch/_279", "op": "Switch", "input": ["StatefulPartitionedCall/model_1/bidirectional_9/backward_lstm_9/PartitionedCall/while/merge/_267", "StatefulPartitionedCall/model_1/bidirectional_9/backward_lstm_9/PartitionedCall/while/LoopCond/_271"], "attr": {"T": {"type": "DT_VARIANT"}}}, {"name": "StatefulPartitionedCall/model_1/bidirectional_9/backward_lstm_9/PartitionedCall/while/Func/StatefulPartitionedCall/model_1/bidirectional_9/backward_lstm_9/PartitionedCall/input/_59_switch/_280", "op": "Switch", "input": ["StatefulPartitionedCall/model_1/bidirectional_9/backward_lstm_9/PartitionedCall/while/merge/_268", "StatefulPartitionedCall/model_1/bidirectional_9/backward_lstm_9/PartitionedCall/while/LoopCond/_271"], "attr": {"T": {"type": "DT_FLOAT"}}}, {"name": "StatefulPartitionedCall/model_1/bidirectional_9/backward_lstm_9/PartitionedCall/while/Func/StatefulPartitionedCall/model_1/bidirectional_9/backward_lstm_9/PartitionedCall/input/_57_switch/_276", "op": "Switch", "input": ["StatefulPartitionedCall/model_1/bidirectional_9/backward_lstm_9/PartitionedCall/while/merge/_264", "StatefulPartitionedCall/model_1/bidirectional_9/backward_lstm_9/PartitionedCall/while/LoopCond/_271"], "attr": {"T": {"type": "DT_FLOAT"}}}, {"name": "StatefulPartitionedCall/model_1/bidirectional_9/backward_lstm_9/PartitionedCall/while/Func/StatefulPartitionedCall/model_1/bidirectional_9/backward_lstm_9/PartitionedCall/input/_60_switch/_281", "op": "Switch", "input": ["StatefulPartitionedCall/model_1/bidirectional_9/backward_lstm_9/PartitionedCall/while/merge/_269", "StatefulPartitionedCall/model_1/bidirectional_9/backward_lstm_9/PartitionedCall/while/LoopCond/_271"], "attr": {"T": {"type": "DT_FLOAT"}}}, {"name": "StatefulPartitionedCall/model_1/bidirectional_9/backward_lstm_9/PartitionedCall/while/Func/StatefulPartitionedCall/model_1/bidirectional_9/backward_lstm_9/PartitionedCall/input/_61_switch/_282", "op": "Switch", "input": ["StatefulPartitionedCall/model_1/bidirectional_9/backward_lstm_9/PartitionedCall/while/merge/_270", "StatefulPartitionedCall/model_1/bidirectional_9/backward_lstm_9/PartitionedCall/while/LoopCond/_271"], "attr": {"T": {"type": "DT_FLOAT"}}}, {"name": "StatefulPartitionedCall/model_1/bidirectional_9/backward_lstm_9/PartitionedCall/while/StatefulPartitionedCall/model_1/bidirectional_9/backward_lstm_9/PartitionedCall/time_switch/_274", "op": "Switch", "input": ["StatefulPartitionedCall/model_1/bidirectional_9/backward_lstm_9/PartitionedCall/while/merge/_262", "StatefulPartitionedCall/model_1/bidirectional_9/backward_lstm_9/PartitionedCall/while/LoopCond/_271"], "attr": {"T": {"type": "DT_INT32"}}}, {"name": "StatefulPartitionedCall/model_1/bidirectional_9/backward_lstm_9/PartitionedCall/while/StatefulPartitionedCall/model_1/bidirectional_9/backward_lstm_9/PartitionedCall/while/loop_counter_switch/_272", "op": "Switch", "input": ["StatefulPartitionedCall/model_1/bidirectional_9/backward_lstm_9/PartitionedCall/while/merge/_260", "StatefulPartitionedCall/model_1/bidirectional_9/backward_lstm_9/PartitionedCall/while/LoopCond/_271"], "attr": {"T": {"type": "DT_INT32"}}}, {"name": "StatefulPartitionedCall/model_1/bidirectional_9/backward_lstm_9/PartitionedCall/while/StatefulPartitionedCall/model_1/bidirectional_9/backward_lstm_9/PartitionedCall/TensorArrayV2_1_switch/_275", "op": "Switch", "input": ["StatefulPartitionedCall/model_1/bidirectional_9/backward_lstm_9/PartitionedCall/while/merge/_263", "StatefulPartitionedCall/model_1/bidirectional_9/backward_lstm_9/PartitionedCall/while/LoopCond/_271"], "attr": {"T": {"type": "DT_VARIANT"}}}, {"name": "StatefulPartitionedCall/model_1/bidirectional_9/backward_lstm_9/PartitionedCall/while/StatefulPartitionedCall/model_1/bidirectional_9/backward_lstm_9/PartitionedCall/strided_slice_switch/_278", "op": "Switch", "input": ["StatefulPartitionedCall/model_1/bidirectional_9/backward_lstm_9/PartitionedCall/while/merge/_266", "StatefulPartitionedCall/model_1/bidirectional_9/backward_lstm_9/PartitionedCall/while/LoopCond/_271"], "attr": {"T": {"type": "DT_INT32"}}}, {"name": "StatefulPartitionedCall/model_1/bidirectional_8/forward_lstm_8/PartitionedCall/while/next_iteration/_119", "op": "NextIteration", "input": ["StatefulPartitionedCall/model_1/bidirectional_8/forward_lstm_8/PartitionedCall/while/body/_68/while/TensorArrayV2Write/TensorListSetItem", "^StatefulPartitionedCall/model_1/bidirectional_8/forward_lstm_8/PartitionedCall/while/loop_body_control/_103"], "attr": {"T": {"type": "DT_VARIANT"}}}, {"name": "StatefulPartitionedCall/model_1/bidirectional_8/backward_lstm_8/PartitionedCall/while/next_iteration/_179", "op": "NextIteration", "input": ["StatefulPartitionedCall/model_1/bidirectional_8/backward_lstm_8/PartitionedCall/while/body/_128/while/TensorArrayV2Write/TensorListSetItem", "^StatefulPartitionedCall/model_1/bidirectional_8/backward_lstm_8/PartitionedCall/while/loop_body_control/_163"], "attr": {"T": {"type": "DT_VARIANT"}}}, {"name": "StatefulPartitionedCall/model_1/bidirectional_9/forward_lstm_9/PartitionedCall/while/loop_body_control/_223", "op": "Identity", "input": ["StatefulPartitionedCall/model_1/bidirectional_9/forward_lstm_9/PartitionedCall/while/StatefulPartitionedCall/model_1/bidirectional_9/forward_lstm_9/PartitionedCall/while/loop_counter_switch/_212:1"], "attr": {"_has_manual_control_dependencies": {"b": true}, "T": {"type": "DT_INT32"}}}, {"name": "StatefulPartitionedCall/model_1/bidirectional_9/forward_lstm_9/PartitionedCall/while/exit/_227", "op": "Exit", "input": ["StatefulPartitionedCall/model_1/bidirectional_9/forward_lstm_9/PartitionedCall/while/StatefulPartitionedCall/model_1/bidirectional_9/forward_lstm_9/PartitionedCall/TensorArrayV2_1_switch/_215"], "attr": {"T": {"type": "DT_VARIANT"}}}, {"name": "StatefulPartitionedCall/model_1/bidirectional_9/backward_lstm_9/PartitionedCall/while/loop_body_control/_283", "op": "Identity", "input": ["StatefulPartitionedCall/model_1/bidirectional_9/backward_lstm_9/PartitionedCall/while/StatefulPartitionedCall/model_1/bidirectional_9/backward_lstm_9/PartitionedCall/while/loop_counter_switch/_272:1"], "attr": {"T": {"type": "DT_INT32"}, "_has_manual_control_dependencies": {"b": true}}}, {"name": "StatefulPartitionedCall/model_1/bidirectional_9/backward_lstm_9/PartitionedCall/while/exit/_287", "op": "Exit", "input": ["StatefulPartitionedCall/model_1/bidirectional_9/backward_lstm_9/PartitionedCall/while/StatefulPartitionedCall/model_1/bidirectional_9/backward_lstm_9/PartitionedCall/TensorArrayV2_1_switch/_275"], "attr": {"T": {"type": "DT_VARIANT"}}}, {"name": "StatefulPartitionedCall/model_1/bidirectional_9/forward_lstm_9/PartitionedCall/while/body/_188/while/split/split_dim", "op": "Const", "input": ["^StatefulPartitionedCall/model_1/bidirectional_9/forward_lstm_9/PartitionedCall/while/loop_body_control/_223"], "attr": {"dtype": {"type": "DT_INT32"}, "value": {"tensor": {"dtype": "DT_INT32", "tensorShape": {}}}}}, {"name": "StatefulPartitionedCall/model_1/bidirectional_9/forward_lstm_9/PartitionedCall/while/next_iteration/_243", "op": "NextIteration", "input": ["StatefulPartitionedCall/model_1/bidirectional_9/forward_lstm_9/PartitionedCall/while/StatefulPartitionedCall/model_1/bidirectional_9/forward_lstm_9/PartitionedCall/TensorArrayUnstack/TensorListFromTensor_switch/_219:1", "^StatefulPartitionedCall/model_1/bidirectional_9/forward_lstm_9/PartitionedCall/while/loop_body_control/_223"], "attr": {"T": {"type": "DT_VARIANT"}}}, {"name": "StatefulPartitionedCall/model_1/bidirectional_9/forward_lstm_9/PartitionedCall/while/body/_188/while/TensorArrayV2Read/TensorListGetItem/element_shape", "op": "Const", "input": ["^StatefulPartitionedCall/model_1/bidirectional_9/forward_lstm_9/PartitionedCall/while/loop_body_control/_223"], "attr": {"value": {"tensor": {"dtype": "DT_INT32", "tensorShape": {"dim": [{"size": "2"}]}}}, "dtype": {"type": "DT_INT32"}}}, {"name": "StatefulPartitionedCall/model_1/bidirectional_9/forward_lstm_9/PartitionedCall/while/next_iteration/_244", "op": "NextIteration", "input": ["StatefulPartitionedCall/model_1/bidirectional_9/forward_lstm_9/PartitionedCall/while/Func/StatefulPartitionedCall/model_1/bidirectional_9/forward_lstm_9/PartitionedCall/input/_48_switch/_220:1", "^StatefulPartitionedCall/model_1/bidirectional_9/forward_lstm_9/PartitionedCall/while/loop_body_control/_223"], "attr": {"T": {"type": "DT_FLOAT"}}}, {"name": "StatefulPartitionedCall/model_1/bidirectional_9/forward_lstm_9/PartitionedCall/while/next_iteration/_245", "op": "NextIteration", "input": ["StatefulPartitionedCall/model_1/bidirectional_9/forward_lstm_9/PartitionedCall/while/Func/StatefulPartitionedCall/model_1/bidirectional_9/forward_lstm_9/PartitionedCall/input/_49_switch/_221:1", "^StatefulPartitionedCall/model_1/bidirectional_9/forward_lstm_9/PartitionedCall/while/loop_body_control/_223"], "attr": {"T": {"type": "DT_FLOAT"}}}, {"name": "StatefulPartitionedCall/model_1/bi…
al_9/forward_lstm_9/PartitionedCall/while/body/_188/while/add_2/y", "op": "Const", "input": ["^StatefulPartitionedCall/model_1/bidirectional_9/forward_lstm_9/PartitionedCall/while/loop_body_control/_223"], "attr": {"value": {"tensor": {"dtype": "DT_INT32", "tensorShape": {}}}, "dtype": {"type": "DT_INT32"}}}, {"name": "StatefulPartitionedCall/model_1/bidirectional_9/forward_lstm_9/PartitionedCall/while/body/_188/while/add_3/y", "op": "Const", "input": ["^StatefulPartitionedCall/model_1/bidirectional_9/forward_lstm_9/PartitionedCall/while/loop_body_control/_223"], "attr": {"dtype": {"type": "DT_INT32"}, "value": {"tensor": {"dtype": "DT_INT32", "tensorShape": {}}}}}, {"name": "StatefulPartitionedCall/model_1/bidirectional_9/forward_lstm_9/PartitionedCall/while/next_iteration/_242", "op": "NextIteration", "input": ["StatefulPartitionedCall/model_1/bidirectional_9/forward_lstm_9/PartitionedCall/while/StatefulPartitionedCall/model_1/bidirectional_9/forward_lstm_9/PartitionedCall/strided_slice_switch/_218:1", "^StatefulPartitionedCall/model_1/bidirectional_9/forward_lstm_9/PartitionedCall/while/loop_body_control/_223"], "attr": {"T": {"type": "DT_INT32"}}}, {"name": "StatefulPartitionedCall/model_1/bidirectional_9/forward_lstm_9/PartitionedCall/TensorArrayV2Stack/TensorListStack", "op": "TensorListStack", "input": ["StatefulPartitionedCall/model_1/bidirectional_9/forward_lstm_9/PartitionedCall/while/exit/_227", "StatefulPartitionedCall/model_1/bidirectional_9/forward_lstm_9/PartitionedCall/TensorArrayV2Stack/TensorListStack/element_shape"], "attr": {"element_dtype": {"type": "DT_FLOAT"}, "num_elements": {"i": "-1"}}}, {"name": "StatefulPartitionedCall/model_1/bidirectional_9/backward_lstm_9/PartitionedCall/while/body/_248/while/split/split_dim", "op": "Const", "input": ["^StatefulPartitionedCall/model_1/bidirectional_9/backward_lstm_9/PartitionedCall/while/loop_body_control/_283"], "attr": {"dtype": {"type": "DT_INT32"}, "value": {"tensor": {"dtype": "DT_INT32", "tensorShape": {}}}}}, {"name": "StatefulPartitionedCall/model_1/bidirectional_9/backward_lstm_9/PartitionedCall/while/next_iteration/_303", "op": "NextIteration", "input": ["StatefulPartitionedCall/model_1/bidirectional_9/backward_lstm_9/PartitionedCall/while/StatefulPartitionedCall/model_1/bidirectional_9/backward_lstm_9/PartitionedCall/TensorArrayUnstack/TensorListFromTensor_switch/_279:1", "^StatefulPartitionedCall/model_1/bidirectional_9/backward_lstm_9/PartitionedCall/while/loop_body_control/_283"], "attr": {"T": {"type": "DT_VARIANT"}}}, {"name": "StatefulPartitionedCall/model_1/bidirectional_9/backward_lstm_9/PartitionedCall/while/body/_248/while/TensorArrayV2Read/TensorListGetItem/element_shape", "op": "Const", "input": ["^StatefulPartitionedCall/model_1/bidirectional_9/backward_lstm_9/PartitionedCall/while/loop_body_control/_283"], "attr": {"value": {"tensor": {"dtype": "DT_INT32", "tensorShape": {"dim": [{"size": "2"}]}}}, "dtype": {"type": "DT_INT32"}}}, {"name": "StatefulPartitionedCall/model_1/bidirectional_9/backward_lstm_9/PartitionedCall/while/next_iteration/_304", "op": "NextIteration", "input": ["StatefulPartitionedCall/model_1/bidirectional_9/backward_lstm_9/PartitionedCall/while/Func/StatefulPartitionedCall/model_1/bidirectional_9/backward_lstm_9/PartitionedCall/input/_59_switch/_280:1", "^StatefulPartitionedCall/model_1/bidirectional_9/backward_lstm_9/PartitionedCall/while/loop_body_control/_283"], "attr": {"T": {"type": "DT_FLOAT"}}}, {"name": "StatefulPartitionedCall/model_1/bidirectional_9/backward_lstm_9/PartitionedCall/while/next_iteration/_305", "op": "NextIteration", "input": ["StatefulPartitionedCall/model_1/bidirectional_9/backward_lstm_9/PartitionedCall/while/Func/StatefulPartitionedCall/model_1/bidirectional_9/backward_lstm_9/PartitionedCall/input/_60_switch/_281:1", "^StatefulPartitionedCall/model_1/bidirectional_9/backward_lstm_9/PartitionedCall/while/loop_body_control/_283"], "attr": {"T": {"type": "DT_FLOAT"}}}, {"name": "StatefulPartitionedCall/model_1/bidirectional_9/backward_lstm_9/PartitionedCall/while/body/_248/while/MatMul_1", "op": "MatMul", "input": ["StatefulPartitionedCall/model_1/bidirectional_9/backward_lstm_9/PartitionedCall/while/Func/StatefulPartitionedCall/model_1/bidirectional_9/backward_lstm_9/PartitionedCall/input/_57_switch/_276:1", "StatefulPartitionedCall/model_1/bidirectional_9/backward_lstm_9/PartitionedCall/while/Func/StatefulPartitionedCall/model_1/bidirectional_9/backward_lstm_9/PartitionedCall/input/_60_switch/_281:1", "^StatefulPartitionedCall/model_1/bidirectional_9/backward_lstm_9/PartitionedCall/while/loop_body_control/_283"], "device": "/device:CPU:0", "attr": {"transpose_b": {"b": false}, "transpose_a": {"b": false}, "T": {"type": "DT_FLOAT"}}}, {"name": "StatefulPartitionedCall/model_1/bidirectional_9/backward_lstm_9/PartitionedCall/while/next_iteration/_306", "op": "NextIteration", "input": ["StatefulPartitionedCall/model_1/bidirectional_9/backward_lstm_9/PartitionedCall/while/Func/StatefulPartitionedCall/model_1/bidirectional_9/backward_lstm_9/PartitionedCall/input/_61_switch/_282:1", "^StatefulPartitionedCall/model_1/bidirectional_9/backward_lstm_9/PartitionedCall/while/loop_body_control/_283"], "attr": {"T": {"type": "DT_FLOAT"}}}, {"name": "Func/StatefulPartitionedCall/model_1/bidirectional_9/backward_lstm_9/PartitionedCall/while/body/_248/input/_434", "op": "Identity", "input": ["StatefulPartitionedCall/model_1/bidirectional_9/backward_lstm_9/PartitionedCall/while/StatefulPartitionedCall/model_1/bidirectional_9/backward_lstm_9/PartitionedCall/time_switch/_274:1", "^StatefulPartitionedCall/model_1/bidirectional_9/backward_lstm_9/PartitionedCall/while/loop_body_control/_283"], "attr": {"T": {"type": "DT_INT32"}}}, {"name": "StatefulPartitionedCall/model_1/bidirectional_9/backward_lstm_9/PartitionedCall/while/body/_248/while/add_2/y", "op": "Const", "input": ["^StatefulPartitionedCall/model_1/bidirectional_9/backward_lstm_9/PartitionedCall/while/loop_body_control/_283"], "attr": {"value": {"tensor": {"dtype": "DT_INT32", "tensorShape": {}}}, "dtype": {"type": "DT_INT32"}}}, {"name": "StatefulPartitionedCall/model_1/bidirectional_9/backward_lstm_9/PartitionedCall/while/body/_248/while/add_3/y", "op": "Const", "input": ["^StatefulPartitionedCall/model_1/bidirectional_9/backward_lstm_9/PartitionedCall/while/loop_body_control/_283"], "attr": {"value": {"tensor": {"dtype": "DT_INT32", "tensorShape": {}}}, "dtype": {"type": "DT_INT32"}}}, {"name": "StatefulPartitionedCall/model_1/bidirectional_9/backward_lstm_9/PartitionedCall/while/next_iteration/_302", "op": "NextIteration", "input": ["StatefulPartitionedCall/model_1/bidirectional_9/backward_lstm_9/PartitionedCall/while/StatefulPartitionedCall/model_1/bidirectional_9/backward_lstm_9/PartitionedCall/strided_slice_switch/_278:1", "^StatefulPartitionedCall/model_1/bidirectional_9/backward_lstm_9/PartitionedCall/while/loop_body_control/_283"], "attr": {"T": {"type": "DT_INT32"}}}, {"name": "StatefulPartitionedCall/model_1/bidirectional_9/backward_lstm_9/PartitionedCall/TensorArrayV2Stack/TensorListStack", "op": "TensorListStack", "input": ["StatefulPartitionedCall/model_1/bidirectional_9/backward_lstm_9/PartitionedCall/while/exit/_287", "StatefulPartitionedCall/model_1/bidirectional_9/backward_lstm_9/PartitionedCall/TensorArrayV2Stack/TensorListStack/element_shape"], "attr": {"num_elements": {"i": "-1"}, "element_dtype": {"type": "DT_FLOAT"}}}, {"name": "StatefulPartitionedCall/model_1/bidirectional_9/forward_lstm_9/PartitionedCall/while/body/_188/while/TensorArrayV2Read/TensorListGetItem", "op": "TensorListGetItem", "input": ["StatefulPartitionedCall/model_1/bidirectional_9/forward_lstm_9/PartitionedCall/while/StatefulPartitionedCall/model_1/bidirectional_9/forward_lstm_9/PartitionedCall/TensorArrayUnstack/TensorListFromTensor_switch/_219:1", "Func/StatefulPartitionedCall/model_1/bidirectional_9/forward_lstm_9/PartitionedCall/while/body/_188/input/_397", "StatefulPartitionedCall/model_1/bidirectional_9/forward_lstm_9/PartitionedCall/while/body/_188/while/TensorArrayV2Read/TensorListGetItem/element_shape"], "attr": {"element_dtype": {"type": "DT_FLOAT"}}}, {"name": "StatefulPartitionedCall/model_1/bidirectional_9/forward_lstm_9/PartitionedCall/while/body/_188/while/add_2", "op": "AddV2", "input": ["Func/StatefulPartitionedCall/model_1/bidirectional_9/forward_lstm_9/PartitionedCall/while/body/_188/input/_397", "StatefulPartitionedCall/model_1/bidirectional_9/forward_lstm_9/PartitionedCall/while/body/_188/while/add_2/y"], "attr": {"T": {"type": "DT_INT32"}}}, {"name": "StatefulPartitionedCall/model_1/bidirectional_9/forward_lstm_9/PartitionedCall/while/body/_188/while/add_3", "op": "AddV2", "input": ["StatefulPartitionedCall/model_1/bidirectional_9/forward_lstm_9/PartitionedCall/while/StatefulPartitionedCall/model_1/bidirectional_9/forward_lstm_9/PartitionedCall/while/loop_counter_switch/_212:1", "StatefulPartitionedCall/model_1/bidirectional_9/forward_lstm_9/PartitionedCall/while/body/_188/while/add_3/y"], "attr": {"T": {"type": "DT_INT32"}}}, {"name": "StatefulPartitionedCall/model_1/bidirectional_9/forward_lstm_9/PartitionedCall/transpose_1", "op": "Transpose", "input": ["StatefulPartitionedCall/model_1/bidirectional_9/forward_lstm_9/PartitionedCall/TensorArrayV2Stack/TensorListStack", "StatefulPartitionedCall/model_1/bidirectional_9/forward_lstm_9/PartitionedCall/transpose_1/perm"], "attr": {"Tperm": {"type": "DT_INT32"}, "T": {"type": "DT_FLOAT"}}}, {"name": "StatefulPartitionedCall/model_1/bidirectional_9/backward_lstm_9/PartitionedCall/while/body/_248/while/TensorArrayV2Read/TensorListGetItem", "op": "TensorListGetItem", "input": ["StatefulPartitionedCall/model_1/bidirectional_9/backward_lstm_9/PartitionedCall/while/StatefulPartitionedCall/model_1/bidirectional_9/backward_lstm_9/PartitionedCall/TensorArrayUnstack/TensorListFromTensor_switch/_279:1", "Func/StatefulPartitionedCall/model_1/bidirectional_9/backward_lstm_9/PartitionedCall/while/body/_248/input/_434", "StatefulPartitionedCall/model_1/bidirectional_9/backward_lstm_9/PartitionedCall/while/body/_248/while/TensorArrayV2Read/TensorListGetItem/element_shape"], "attr": {"element_dtype": {"type": "DT_FLOAT"}}}, {"name": "StatefulPartitionedCall/model_1/bidirectional_9/backward_lstm_9/PartitionedCall/while/body/_248/while/add_2", "op": "AddV2", "input": ["Func/StatefulPartitionedCall/model_1/bidirectional_9/backward_lstm_9/PartitionedCall/while/body/_248/input/_434", "StatefulPartitionedCall/model_1/bidirectional_9/backward_lstm_9/PartitionedCall/while/body/_248/while/add_2/y"], "attr": {"T": {"type": "DT_INT32"}}}, {"name": "StatefulPartitionedCall/model_1/bidirectional_9/backward_lstm_9/PartitionedCall/while/body/_248/while/add_3", "op": "AddV2", "input": ["StatefulPartitionedCall/model_1/bidirectional_9/backward_lstm_9/PartitionedCall/while/StatefulPartitionedCall/model_1/bidirectional_9/backward_lstm_9/PartitionedCall/while/loop_counter_switch/_272:1", "StatefulPartitionedCall/model_1/bidirectional_9/backward_lstm_9/PartitionedCall/while/body/_248/while/add_3/y"], "attr": {"T": {"type": "DT_INT32"}}}, {"name": "StatefulPartitionedCall/model_1/bidirectional_9/backward_lstm_9/PartitionedCall/transpose_1", "op": "Transpose", "input": ["StatefulPartitionedCall/model_1/bidirectional_9/backward_lstm_9/PartitionedCall/TensorArrayV2Stack/TensorListStack", "StatefulPartitionedCall/model_1/bidirectional_9/backward_lstm_9/PartitionedCall/transpose_1/perm"], "attr": {"Tperm": {"type": "DT_INT32"}, "T": {"type": "DT_FLOAT"}}}, {"name": "StatefulPartitionedCall/model_1/bidirectional_9/forward_lstm_9/PartitionedCall/while/body/_188/while/MatMul", "op": "MatMul", "input": ["StatefulPartitionedCall/model_1/bidirectional_9/forward_lstm_9/PartitionedCall/while/body/_188/while/TensorArrayV2Read/TensorListGetItem", "StatefulPartitionedCall/model_1/bidirectional_9/forward_lstm_9/PartitionedCall/while/Func/StatefulPartitionedCall/model_1/bidirectional_9/forward_lstm_9/PartitionedCall/input/_48_switch/_220:1"], "device": "/device:CPU:0", "attr": {"transpose_b": {"b": false}, "T": {"type": "DT_FLOAT"}, "transpose_a": {"b": false}}}, {"name": "StatefulPartitionedCall/model_1/bidirectional_9/forward_lstm_9/PartitionedCall/while/next_iteration/_238", "op": "NextIteration", "input": ["StatefulPartitionedCall/model_1/bidirectional_9/forward_lstm_9/PartitionedCall/while/body/_188/while/add_2", "^StatefulPartitionedCall/model_1/bidirectional_9/forward_lstm_9/PartitionedCall/while/loop_body_control/_223"], "attr": {"T": {"type": "DT_INT32"}}}, {"name": "StatefulPartitionedCall/model_1/bidirectional_9/forward_lstm_9/PartitionedCall/while/next_iteration/_236", "op": "NextIteration", "input": ["StatefulPartitionedCall/model_1/bidirectional_9/forward_lstm_9/PartitionedCall/while/body/_188/while/add_3", "^StatefulPartitionedCall/model_1/bidirectional_9/forward_lstm_9/PartitionedCall/while/loop_body_control/_223"], "attr": {"T": {"type": "DT_INT32"}}}, {"name": "StatefulPartitionedCall/model_1/bidirectional_9/backward_lstm_9/PartitionedCall/while/body/_248/while/MatMul", "op": "MatMul", "input": ["StatefulPartitionedCall/model_1/bidirectional_9/backward_lstm_9/PartitionedCall/while/body/_248/while/TensorArrayV2Read/TensorListGetItem", "StatefulPartitionedCall/model_1/bidirectional_9/backward_lstm_9/PartitionedCall/while/Func/StatefulPartitionedCall/model_1/bidirectional_9/backward_lstm_9/PartitionedCall/input/_59_switch/_280:1"], "device": "/device:CPU:0", "attr": {"T": {"type": "DT_FLOAT"}, "transpose_a": {"b": false}, "transpose_b": {"b": false}}}, {"name": "StatefulPartitionedCall/model_1/bidirectional_9/backward_lstm_9/PartitionedCall/while/next_iteration/_298", "op": "NextIteration", "input": ["StatefulPartitionedCall/model_1/bidirectional_9/backward_lstm_9/PartitionedCall/while/body/_248/while/add_2", "^StatefulPartitionedCall/model_1/bidirectional_9/backward_lstm_9/PartitionedCall/while/loop_body_control/_283"], "attr": {"T": {"type": "DT_INT32"}}}, {"name": "StatefulPartitionedCall/model_1/bidirectional_9/backward_lstm_9/PartitionedCall/while/next_iteration/_296", "op": "NextIteration", "input": ["StatefulPartitionedCall/model_1/bidirectional_9/backward_lstm_9/PartitionedCall/while/body/_248/while/add_3", "^StatefulPartitionedCall/model_1/bidirectional_9/backward_lstm_9/PartitionedCall/while/loop_body_control/_283"], "attr": {"T": {"type": "DT_INT32"}}}, {"name": "StatefulPartitionedCall/model_1/bidirectional_9/ReverseV2", "op": "ReverseV2", "input": ["StatefulPartitionedCall/model_1/bidirectional_9/backward_lstm_9/PartitionedCall/transpose_1", "StatefulPartitionedCall/model_1/bidirectional_9/ReverseV2/axis"], "attr": {"T": {"type": "DT_FLOAT"}, "Tidx": {"type": "DT_INT32"}}}, {"name": "StatefulPartitionedCall/model_1/bidirectional_9/forward_lstm_9/PartitionedCall/while/body/_188/while/add", "op": "AddV2", "input": ["StatefulPartitionedCall/model_1/bidirectional_9/forward_lstm_9/PartitionedCall/while/body/_188/while/MatMul", "StatefulPartitionedCall/model_1/bidirectional_9/forward_lstm_9/PartitionedCall/while/body/_188/while/MatMul_1"], "attr": {"T": {"type": "DT_FLOAT"}}}, {"name": "StatefulPartitionedCall/model_1/bidirectional_9/backward_lstm_9/PartitionedCall/while/body/_248/while/add", "op": "AddV2", "input": ["StatefulPartitionedCall/model_1/bidirectional_9/backward_lstm_9/PartitionedCall/while/body/_248/while/MatMul", "StatefulPartitionedCall/model_1/bidirectional_9/backward_lstm_9/PartitionedCall/while/body/_248/while/MatMul_1"], "attr": {"T": {"type": "DT_FLOAT"}}}, {"name": "StatefulPartitionedCall/model_1/bidirectional_9/concat", "op": "ConcatV2", "input": ["StatefulPartitionedCall/model_1/bidirectional_9/forward_lstm_9/PartitionedCall/transpose_1", "StatefulPartitionedCall/model_1/bidirectional_9/ReverseV2", "StatefulPartitionedCall/model_1/bidirectional_9/concat/axis"], "attr": {"T": {"type": "DT_FLOAT"}, "Tidx": {"type": "DT_INT32"}, "N": {"i": "2"}}}, {"name": "StatefulPartitionedCall/model_1/bidirectional_9/forward_lstm_9/PartitionedCall/while/body/_188/while/BiasAdd", "op": "BiasAdd", "input": ["StatefulPartitionedCall/model_1/bidirectional_9/forward_lstm_9/PartitionedCall/while/body/_188/while/add", "StatefulPartitionedCall/model_1/bidirectional_9/forward_lstm_9/PartitionedCall/while/Func/StatefulPartitionedCall/model_1/bidirectional_9/forward_lstm_9/PartitionedCall/input/_50_switch/_222:1"], "attr": {"T": {"type": "DT_FLOAT"}, "data_format": {"s": "TkhXQw=="}}}, {"name": "StatefulPartitionedCall/model_1/bidirectional_9/backward_lstm_9/PartitionedCall/while/body/_248/while/BiasAdd", "op": "BiasAdd", "input": ["StatefulPartitionedCall/model_1/bidirectional_9/backward_lstm_9/PartitionedCall/while/body/_248/while/add", "StatefulPartitionedCall/model_1/bidirectional_9/backward_lstm_9/PartitionedCall/while/Func/StatefulPartitionedCall/model_1/bidirectional_9/backward_lstm_9/PartitionedCall/input/_61_switch/_282:1"], "attr": {"T": {"type": "DT_FLOAT"}, "data_format": {"s": "TkhXQw=="}}}, {"name": "StatefulPartitionedCall/model_1/dense2/Tensordot/Shape", "op": "Shape", "input": ["StatefulPartitionedCall/model_1/bidirectional_9/concat"], "attr": {"out_type": {"type": "DT_INT32"}, "T": {"type": "DT_FLOAT"}}}, {"name": "StatefulPartitionedCall/model_1/bidirectional_9/forward_lstm_9/PartitionedCall/while/body/_188/while/split", "op": "Split", "input": ["StatefulPartitionedCall/model_1/bidirectional_9/forward_lstm_9/PartitionedCall/while/body/_188/while/split/split_dim", "StatefulPartitionedCall/model_1/bidirectional_9/forward_lstm_9/PartitionedCall/while/body/_188/while/BiasAdd"], "attr": {"num_split": {"i": "4"}, "T": {"type": "DT_FLOAT"}}}, {"name": "StatefulPartitionedCall/model_1/bidirectional_9/backward_lstm_9/PartitionedCall/while/body/_248/while/split", "op": "Split", "input": ["StatefulPartitionedCall/model_1/bidirectional_9/backward_lstm_9/PartitionedCall/while/body/_248/while/split/split_dim", "StatefulPartitionedCall/model_1/bidirectional_9/backward_lstm_9/PartitionedCall/while/body/_248/while/BiasAdd"], "attr": {"num_split": {"i": "4"}, "T": {"type": "DT_FLOAT"}}}, {"name": "StatefulPartitionedCall/model_1/dense2/Tensordot/GatherV2_1", "op": "GatherV2", "input": ["StatefulPartitionedCall/model_1/dense2/Tensordot/Shape", "StatefulPartitionedCall/model_1/dense2/Tensordot/axes", "StatefulPartitionedCall/model_1/dense2/Tensordot/GatherV2_1/axis"], "attr": {"batch_dims": {"i": "0"}, "Taxis": {"type": "DT_INT32"}, "Tindices": {"type": "DT_INT32"}, "Tparams": {"type": "DT_INT32"}}}, {"name": "StatefulPartitionedCall/model_1/dense2/Tensordot/GatherV2", "op": "GatherV2", "input": ["StatefulPartitionedCall/model_1/dense2/Tensordot/Shape", "StatefulPartitionedCall/model_1/dense2/Tensordot/free", "StatefulPartitionedCall/model_1/dense2/Tensordot/GatherV2/axis"], "attr": {"Tparams": {"type": "DT_INT32"}, "batch_dims": {"i": "0"}, "Taxis": {"type": "DT_INT32"}, "Tindices": {"type": "DT_INT32"}}}, {"name": "StatefulPartitionedCall/model_1/bidirectional_9/forward_lstm_9/PartitionedCall/while/body/_188/while/Sigmoid", "op": "Sigmoid", "input": ["StatefulPartitionedCall/model_1/bidirectional_9/forward_lstm_9/PartitionedCall/while/body/_188/while/split"], "attr": {"T": {"type": "DT_FLOAT"}}}, {"name": "StatefulPartitionedCall/model_1/bidirectional_9/forward_lstm_9/PartitionedCall/while/body/_188/while/Sigmoid_1", "op": "Sigmoid", "input": ["StatefulPartitionedCall/model_1/bidirectional_9/forward_lstm_9/PartitionedCall/while/body/_188/while/split:1"], "attr": {"T": {"type": "DT_FLOAT"}}}, {"name": "StatefulPartitionedCall/model_1/bidirectional_9/forward_lstm_9/PartitionedCall/while/body/_188/while/Tanh", "op": "Tanh", "input": ["StatefulPartitionedCall/model_1/bidirectional_9/forward_lstm_9/PartitionedCall/while/body/_188/while/split:2"], "attr": {"T": {"type": "DT_FLOAT"}}}, {"name": "StatefulPartitionedCall/model_1/bidirectional_9/forward_lstm_9/PartitionedCall/while/body/_188/while/Sigmoid_2", "op": "Sigmoid", "input": ["StatefulPartitionedCall/model_1/bidirectional_9/forward_lstm_9/PartitionedCall/while/body/_188/while/split:3"], "attr": {"T": {"type": "DT_FLOAT"}}}, {"name": "StatefulPartitionedCall/model_1/bidirectional_9/backward_lstm_9/PartitionedCall/while/body/_248/while/Sigmoid", "op": "Sigmoid", "input": ["StatefulPartitionedCall/model_1/bidirectional_9/backward_lstm_9/PartitionedCall/while/body/_248/while/split"], "attr": {"T": {"type": "DT_FLOAT"}}}, {"name": "StatefulPartitionedCall/model_1/bidirectional_9/backward_lstm_9/PartitionedCall/while/body/_248/while/Sigmoid_1", "op": "Sigmoid", "input": ["StatefulPartitionedCall/model_1/bidirectional_9/backward_lstm_9/PartitionedCall/while/body/_248/while/split:1"], "attr": {"T": {"type": "DT_FLOAT"}}}, {"name": "StatefulPartitionedCall/model_1/bidirectional_9/backward_lstm_9/PartitionedCall/while/body/_248/while/Tanh", "op": "Tanh", "input": ["StatefulPartitionedCall/model_1/bidirectional_9/backward_lstm_9/PartitionedCall/while/body/_248/while/split:2"], "attr": {"T": {"type": "DT_FLOAT"}}}, {"name": "StatefulPartitionedCall/model_1/bidirectional_9/backward_lstm_9/PartitionedCall/while/body/_248/while/Sigmoid_2", "op": "Sigmoid", "input": ["StatefulPartitionedCall/model_1/bidirectional_9/backward_lstm_9/PartitionedCall/while/body/_248/while/split:3"], "attr": {"T": {"type": "DT_FLOAT"}}}, {"name": "StatefulPartitionedCall/model_1/dense2/Tensordot/Prod_1", "op": "Prod", "input": ["StatefulPartitionedCall/model_1/dense2/Tensordot/GatherV2_1", "StatefulPartitionedCall/model_1/dense2/Tensordot/Const_1"], "attr": {"Tidx": {"type": "DT_INT32"}, "T": {"type": "DT_INT32"}, "keep_dims": {"b": false}}}, {"name": "StatefulPartitionedCall/model_1/dense2/Tensordot/Prod", "op": "Prod", "input": ["StatefulPartitionedCall/model_1/dense2/Tensordot/GatherV2", "StatefulPartitionedCall/model_1/dense2/Tensordot/Const"], "attr": {"keep_dims": {"b": false}, "T": {"type": "DT_INT32"}, "Tidx": {"type": "DT_INT32"}}}, {"name": "StatefulPartitionedCall/model_1/dense2/Tensordot/concat_1", "op": "ConcatV2", "input": ["StatefulPartitionedCall/model_1/dense2/Tensordot/GatherV2", "StatefulPartitionedCall/model_1/dense2/Tensordot/Const_2", "StatefulPartitionedCall/model_1/dense2/Tensordot/concat_1/axis"], "attr": {"N": {"i": "2"}, "T": {"type": "DT_INT32"}, "Tidx": {"type": "DT_INT32"}}}, {"name": "StatefulPartitionedCall/model_1/bidirectional_9/forward_lstm_9/PartitionedCall/while/body/_188/while/mul", "op": "Mul", "input": ["StatefulPartitionedCall/model_1/bidirectional_9/forward_lstm_9/PartitionedCall/while/body/_188/while/Sigmoid_1", "StatefulPartitionedCall/model_1/bidirectional_9/forward_lstm_9/PartitionedCall/while/Func/StatefulPartitionedCall/model_1/bidirectional_9/forward_lstm_9/PartitionedCall/input/_47_switch/_217:1"], "attr": {"T": {"type": "DT_FLOAT"}}}, {"name": "StatefulPartitionedCall/model_1/bidirectional_9/forward_lstm_9/PartitionedCall/while/body/_188/while/mul_1", "op": "Mul", "input": ["StatefulPartitionedCall/model_1/bidirectional_9/forward_lstm_9/PartitionedCall/while/body/_188/while/Sigmoid", "StatefulPartitionedCall/model_1/bidirectional_9/forward_lstm_9/PartitionedCall/while/body/_188/while/Tanh"], "attr": {"T": {"type": "DT_FLOAT"}}}, {"name": "StatefulPartitionedCall/model_1/bidirectional_9/backward_lstm_9/PartitionedCall/while/body/_248/while/mul", "op": "Mul", "input": ["StatefulPartitionedCall/model_1/bidirectional_9/backward_lstm_9/PartitionedCall/while/body/_248/while/Sigmoid_1", "StatefulPartitionedCall/model_1/bidirectional_9/backward_lstm_9/PartitionedCall/while/Func/StatefulPartitionedCall/model_1/bidirectional_9/backward_lstm_9/PartitionedCall/input/_58_switch/_277:1"], "attr": {"T": {"type": "DT_FLOAT"}}}, {"name": "StatefulPartitionedCall/model_1/bidirectional_9/backward_lstm_9/PartitionedCall/while/body/_248/while/mul_1", "op": "Mul", "input": ["StatefulPartitionedCall/model_1/bidirectional_9/backward_lstm_9/PartitionedCall/while/body/_248/while/Sigmoid", "StatefulPartitionedCall/model_1/bidirectional_9/backward_lstm_9/PartitionedCall/while/body/_248/while/Tanh"], "attr": {"T": {"type": "DT_FLOAT"}}}, {"name": "StatefulPartitionedCall/model_1/dense2/Tensordot/stack", "op": "Pack", "input": ["StatefulPartitionedCall/model_1/dense2/Tensordot/Prod", "StatefulPartitionedCall/model_1/dense2/Tensordot/Prod_1"], "attr": {"N": {"i": "2"}, "T": {"type": "DT_INT32"}, "axis": {"i": "0"}}}, {"name": "StatefulPartitionedCall/model_1/bidirectional_9/forward_lstm_9/PartitionedCall/while/body/_188/while/add_1", "op": "AddV2", "input": ["StatefulPartitionedCall/model_1/bidirectional_9/forward_lstm_9/PartitionedCall/while/body/_188/while/mul", "StatefulPartitionedCall/model_1/bidirectional_9/forward_lstm_9/PartitionedCall/while/body/_188/while/mul_1"], "attr": {"T": {"type": "DT_FLOAT"}}}, {"name": "StatefulPartitionedCall/model_1/bidirectional_9/backward_lstm_9/PartitionedCall/while/body/_248/while/add_1", "op": "AddV2", "input": ["StatefulPartitionedCall/model_1/bidirectional_9/backward_lstm_9/PartitionedCall/while/body/_248/while/mul", "StatefulPartitionedCall/model_1/bidirectional_9/backward_lstm_9/PartitionedCall/while/body/_248/while/mul_1"], "attr": {"T": {"type": "DT_FLOAT"}}}, {"name": "StatefulPartitionedCall/model_1/dense2/Tensordot/Reshape", "op": "Reshape", "input": ["StatefulPartitionedCall/model_1/bidirectional_9/concat", "StatefulPartitionedCall/model_1/dense2/Tensordot/stack"], "attr": {"T": {"type": "DT_FLOAT"}, "Tshape": {"type": "DT_INT32"}}}, {"name": "StatefulPartitionedCall/model_1/bidirectional_9/forward_lstm_9/PartitionedCall/while/body/_188/while/Tanh_1", "op": "Tanh", "input": ["StatefulPartitionedCall/model_1/bidirectional_9/forward_lstm_9/PartitionedCall/while/body/_188/while/add_1"], "attr": {"T": {"type": "DT_FLOAT"}}}, {"name": "StatefulPartitionedCall/model_1/bidirectional_9/forward_lstm_9/PartitionedCall/while/next_iteration/_241", "op": "NextIteration", "input": ["StatefulPartitionedCall/model_1/bidirectional_9/forward_lstm_9/PartitionedCall/while/body/_188/while/add_1", "^StatefulPartitionedCall/model_1/bidirectional_9/forward_lstm_9/PartitionedCall/while/loop_body_control/_223"], "attr": {"T": {"type": "DT_FLOAT"}}}, {"name": "StatefulPartitionedCall/model_1/bidirectional_9/backward_lstm_9/PartitionedCall/while/body/_248/while/Tanh_1", "op": "Tanh", "input": ["StatefulPartitionedCall/model_1/bidirectional_9/backward_lstm_9/PartitionedCall/while/body/_248/while/add_1"], "attr": {"T": {"type": "DT_FLOAT"}}}, {"name": "StatefulPartitionedCall/model_1/bidirectional_9/backward_lstm_9/PartitionedCall/while/next_iteration/_301", "op": "NextIteration", "input": ["StatefulPartitionedCall/model_1/bidirectional_9/backward_lstm_9/PartitionedCall/while/body/_248/while/add_1", "^StatefulPartitionedCall/model_1/bidirectional_9/backward_lstm_9/PartitionedCall/while/loop_body_control/_283"], "attr": {"T": {"type": "DT_FLOAT"}}}, {"name": "StatefulPartitionedCall/model_1/dense2/Tensordot/MatMul", "op": "MatMul", "input": ["StatefulPartitionedCall/model_1/dense2/Tensordot/Reshape", "StatefulPartitionedCall/model_1/dense2/Tensordot/ReadVariableOp"], "device": "/device:CPU:0", "attr": {"transpose_a": {"b": false}, "T": {"type": "DT_FLOAT"}, "transpose_b": {"b": false}}}, {"name": "StatefulPartitionedCall/model_1/bidirectional_9/forward_lstm_9/PartitionedCall/while/body/_188/while/mul_2", "op": "Mul", "input": ["StatefulPartitionedCall/model_1/bidirectional_9/forward_lstm_9/PartitionedCall/while/body/_188/while/Sigmoid_2", "StatefulPartitionedCall/model_1/bidirectional_9/forward_lstm_9/PartitionedCall/while/body/_188/while/Tanh_1"], "attr": {"T": {"type": "DT_FLOAT"}}}, {"name": "StatefulPartitionedCall/model_1/bidirectional_9/backward_lstm_9/PartitionedCall/while/body/_248/while/mul_2", "op": "Mul", "input": ["StatefulPartitionedCall/model_1/bidirectional_9/backward_lstm_9/PartitionedCall/while/body/_248/while/Sigmoid_2", "StatefulPartitionedCall/model_1/bidirectional_9/backward_lstm_9/PartitionedCall/while/body/_248/while/Tanh_1"], "attr": {"T": {"type": "DT_FLOAT"}}}, {"name": "StatefulPartitionedCall/model_1/dense2/Tensordot", "op": "Reshape", "input": ["StatefulPartitionedCall/model_1/dense2/Tensordot/MatMul", "StatefulPartitionedCall/model_1/dense2/Tensordot/concat_1"], "attr": {"Tshape": {"type": "DT_INT32"}, "T": {"type": "DT_FLOAT"}}}, {"name": "StatefulPartitionedCall/model_1/bidirectional_9/forward_lstm_9/PartitionedCall/while/next_iteration/_240", "op": "NextIteration", "input": ["StatefulPartitionedCall/model_1/bidirectional_9/forward_lstm_9/PartitionedCall/while/body/_188/while/mul_2", "^StatefulPartitionedCall/model_1/bidirectional_9/forward_lstm_9/PartitionedCall/while/loop_body_control/_223"], "attr": {"T": {"type": "DT_FLOAT"}}}, {"name": "StatefulPartitionedCall/model_1/bidirectional_9/forward_lstm_9/PartitionedCall/while/body/_188/while/TensorArrayV2Write/TensorListSetItem", "op": "TensorListSetItem", "input": ["StatefulPartitionedCall/model_1/bidirectional_9/forward_lstm_9/PartitionedCall/while/StatefulPartitionedCall/model_1/bidirectional_9/forward_lstm_9/PartitionedCall/TensorArrayV2_1_switch/_215:1", "Func/StatefulPartitionedCall/model_1/bidirectional_9/forward_lstm_9/PartitionedCall/while/body/_188/input/_397", "StatefulPartitionedCall/model_1/bidirectional_9/forward_lstm_9/PartitionedCall/while/body/_188/while/mul_2"], "attr": {"element_dtype": {"type": "DT_FLOAT"}}, "experimentalType": {"typeId": "TFT_PRODUCT", "args": [{"typeId": "TFT_ARRAY", "args": [{"typeId": "TFT_TENSOR", "args": [{"typeId": "TFT_FLOAT"}]}]}]}}, {"name": "StatefulPartitionedCall/model_1/bidirectional_9/backward_lstm_9/PartitionedCall/while/next_iteration/_300", "op": "NextIteration", "input": ["StatefulPartitionedCall/model_1/bidirectional_9/backward_lstm_9/PartitionedCall/while/body/_248/while/mul_2", "^StatefulPartitionedCall/model_1/bidirectional_9/backward_lstm_9/PartitionedCall/while/loop_body_control/_283"], "attr": {"T": {"type": "DT_FLOAT"}}}, {"name": "StatefulPartitionedCall/model_1/bidirectional_9/backward_lstm_9/PartitionedCall/while/body/_248/while/TensorArrayV2Write/TensorListSetItem", "op": "TensorListSetItem", "input": ["StatefulPartitionedCall/model_1/bidirectional_9/backward_lstm_9/PartitionedCall/while/StatefulPartitionedCall/model_1/bidirectional_9/backward_lstm_9/PartitionedCall/TensorArrayV2_1_switch/_275:1", "Func/StatefulPartitionedCall/model_1/bidirectional_9/backward_lstm_9/PartitionedCall/while/body/_248/input/_434", "StatefulPartitionedCall/model_1/bidirectional_9/backward_lstm_9/PartitionedCall/while/body/_248/while/mul_2"], "attr": {"element_dtype": {"type": "DT_FLOAT"}}, "experimentalType": {"typeId": "TFT_PRODUCT", "args": [{"typeId": "TFT_ARRAY", "args": [{"typeId": "TFT_TENSOR", "args": [{"typeId": "TFT_FLOAT"}]}]}]}}, {"name": "StatefulPartitionedCall/model_1/dense2/BiasAdd", "op": "BiasAdd", "input": ["StatefulPartitionedCall/model_1/dense2/Tensordot", "StatefulPartitionedCall/model_1/dense2/BiasAdd/ReadVariableOp"], "attr": {"data_format": {"s": "TkhXQw=="}, "T": {"type": "DT_FLOAT"}}}, {"name": "StatefulPartitionedCall/model_1/bidirectional_9/forward_lstm_9/PartitionedCall/while/next_iteration/_239", "op": "NextIteration", "input": ["StatefulPartitionedCall/model_1/bidirectional_9/forward_lstm_9/PartitionedCall/while/body/_188/while/TensorArrayV2Write/TensorListSetItem", "^StatefulPartitionedCall/model_1/bidirectional_9/forward_lstm_9/PartitionedCall/while/loop_body_control/_223"], "attr": {"T": {"type": "DT_VARIANT"}}}, {"name": "StatefulPartitionedCall/model_1/bidirectional_9/backward_lstm_9/PartitionedCall/while/next_iteration/_299", "op": "NextIteration", "input": ["StatefulPartitionedCall/model_1/bidirectional_9/backward_lstm_9/PartitionedCall/while/body/_248/while/TensorArrayV2Write/TensorListSetItem", "^StatefulPartitionedCall/model_1/bidirectional_9/backward_lstm_9/PartitionedCall/while/loop_body_control/_283"], "attr": {"T": {"type": "DT_VARIANT"}}}, {"name": "StatefulPartitionedCall/model_1/dense2/Softmax", "op": "Softmax", "input": ["StatefulPartitionedCall/model_1/dense2/BiasAdd"], "attr": {"T": {"type": "DT_FLOAT"}}}, {"name": "Identity", "op": "Identity", "input": ["StatefulPartitionedCall/model_1/dense2/Softmax"], "attr": {"T": {"type": "DT_FLOAT"}}}], "library": {}, "versions": {"producer": 1286}}, "weightsManifest": [{"paths": ["group1-shard1of1.bin"], "weights": [{"name": "StatefulPartitionedCall/model_1/dense2/Tensordot/Const", "shape": [1], "dtype": "int32"}, {"name": "StatefulPartitionedCall/model_1/dense2/Tensordot/axes", "shape": [1], "dtype": "int32"}, {"name": "StatefulPartitionedCall/model_1/dense2/Tensordot/GatherV2_1/axis", "shape": [], "dtype": "int32"}, {"name": "StatefulPartitionedCall/model_1/dense2/Tensordot/Const_1", "shape": [1], "dtype": "int32"}, {"name": "StatefulPartitionedCall/model_1/dense2/Tensordot/ReadVariableOp", "shape": [128, 24], "dtype": "float32"}, {"name": "StatefulPartitionedCall/model_1/bidirectional_9/forward_lstm_9/PartitionedCall/TensorArrayV2_1/element_shape", "shape": [2], "dtype": "int32"}, {"name": "StatefulPartitionedCall/model_1/bidirectional_9/forward_lstm_9/zeros_1/packed/1", "shape": [], "dtype": "int32"}, {"name": "StatefulPartitionedCall/model_1/bidirectional_9/forward_lstm_9/zeros_1/Const", "shape": [], "dtype": "float32"}, {"name": "StatefulPartitionedCall/model_1/bidirectional_9/forward_lstm_9/PartitionedCall/TensorArrayUnstack/TensorListFromTensor/element_shape", "shape": [2], "dtype": "int32"}, {"name": "StatefulPartitionedCall/model_1/bidirectional_9/forward_lstm_9/Read/ReadVariableOp", "shape": [256, 256], "dtype": "float32"}, {"name": "StatefulPartitionedCall/model_1/bidirectional_9/forward_lstm_9/strided_slice/stack", "shape": [1], "dtype": "int32"}, {"name": "StatefulPartitionedCall/model_1/bidirectional_9/forward_lstm_9/strided_slice/stack_1", "shape": [1], "dtype": "int32"}, {"name": "StatefulPartitionedCall/model_1/bidirectional_9/forward_lstm_9/strided_slice/stack_2", "shape": [1], "dtype": "int32"}, {"name": "StatefulPartitionedCall/model_1/bidirectional_9/forward_lstm_9/zeros/packed/1", "shape": [], "dtype": "int32"}, {"name": "StatefulPartitionedCall/model_1/bidirectional_9/forward_lstm_9/zeros/Const", "shape": [], "dtype": "float32"}, {"name": "StatefulPartitionedCall/model_1/bidirectional_9/forward_lstm_9/Read_1/ReadVariableOp", "shape": [64, 256], "dtype": "float32"}, {"name": "StatefulPartitionedCall/model_1/bidirectional_9/forward_lstm_9/Read_2/ReadVariableOp", "shape": [256], "dtype": "float32"}, {"name": "StatefulPartitionedCall/model_1/bidirectional_9/forward_lstm_9/PartitionedCall/time", "shape": [], "dtype": "int32"}, {"name": "StatefulPartitionedCall/model_1/bidirectional_9/forward_lstm_9/PartitionedCall/transpose/perm", "shape": [3], "dtype": "int32"}, {"name": "StatefulPartitionedCall/model_1/bidirectional_9/forward_lstm_9/PartitionedCall/strided_slice/stack", "shape": [1], "dtype": "int32"}, {"name": "StatefulPartitionedCall/model_1/bidirectional_9/forward_lstm_9/PartitionedCall/strided_slice/stack_1", "shape": [1], "dtype": "int32"}, {"name": "StatefulPartitionedCall/model_1/bidirectional_9/forward_lstm_9/PartitionedCall/strided_slice/stack_2", "shape": [1], "dtype": "int32"}, {"name": "StatefulPartitionedCall/model_1/bidirectional_9/forward_lstm_9/PartitionedCall/while/loop_counter", "shape": [], "dtype": "int32"}, {"name": "StatefulPartitionedCall/model_1/bidirectional_9/forward_lstm_9/PartitionedCall/TensorArrayV2Stack/TensorListStack/element_shape", "shape": [2], "dtype": "int32"}, {"name": "StatefulPartitionedCall/model_1/bidirectional_9/forward_lstm_9/PartitionedCall/transpose_1/perm", "shape": [3], "dtype": "int32"}, {"name": "StatefulPartitionedCall/model_1/bidirectional_9/backward_lstm_9/PartitionedCall/TensorArrayV2_1/element_shape", "shape": [2], "dtype": "int32"}, {"name": "StatefulPartitionedCall/model_1/bidirectional_9/backward_lstm_9/zeros_1/packed/1", "shape": [], "dtype": "int32"}, {"name": "StatefulPartitionedCall/model_1/bidirectional_9/backward_lstm_9/zeros_1/Const", "shape": [], "dtype": "float32"}, {"name": "StatefulPartitionedCall/model_1/bidirectional_9/backward_lstm_9/PartitionedCall/ReverseV2/axis", "shape": [1], "dtype": "int32"}, {"name": "StatefulPartitionedCall/model_1/bidirectional_9/backward_lstm_9/PartitionedCall/TensorArrayUnstack/TensorListFromTensor/element_shape", "shape": [2], "dtype": "int32"}, {"name": "StatefulPartitionedCall/model_1/bidirectional_9/backward_lstm_9/Read/ReadVariableOp", "shape": [256, 256], "dtype": "float32"}, {"name": "StatefulPartitionedCall/model_1/bidirectional_9/backward_lstm_9/strided_slice/stack", "shape": [1], "dtype": "int32"}, {"name": "StatefulPartitionedCall/model_1/bidirectional_9/backward_lstm_9/strided_slice/stack_1", "shape": [1], "dtype": "int32"}, {"name": "StatefulPartitionedCall/model_1/bidirectional_9/backward_lstm_9/strided_slice/stack_2", "shape": [1], "dtype": "int32"}, {"name": "StatefulPartitionedCall/model_1/bidirectional_9/backward_lstm_9/zeros/packed/1", "shape": [], "dtype": "int32"}, {"name": "StatefulPartitionedCall/model_1/bidirectional_9/backward_lstm_9/zeros/Const", "shape": [], "dtype": "float32"}, {"name": "StatefulPartitionedCall/model_1/bidirectional_9/backward_lstm_9/Read_1/ReadVariableOp", "shape": [64, 256], "dtype": "float32"}, {"name": "StatefulPartitionedCall/model_1/bidirectional_9/backward_lstm_9/Read_2/ReadVariableOp", "shape": [256], "dtype": "float32"}, {"name": "StatefulPartitionedCall/model_1/bidirectional_9/backward_lstm_9/PartitionedCall/time", "shape": [], "dtype": "int32"}, {"name": "StatefulPartitionedCall/model_1/bidirectional_8/forward_lstm_8/PartitionedCall/TensorArrayV2_1/element_shape", "shape": [2], "dtype": "int32"}, {"name": "StatefulPartitionedCall/model_1/bidirectional_8/forward_lstm_8/zeros_1/packed/1", "shape": [], "dtype": "int32"}, {"name": "StatefulPartitionedCall/model_1/bidirectional_8/forward_lstm_8/zeros_1/Const", "shape": [], "dtype": "float32"}, {"name": "StatefulPartitionedCall/model_1/bidirectional_8/forward_lstm_8/PartitionedCall/TensorArrayUnstack/TensorListFromTensor/element_shape", "shape": [2], "dtype": "int32"}, {"name": "StatefulPartitionedCall/model_1/bidirectional_8/forward_lstm_8/Read/ReadVariableOp", "shape": [64, 512], "dtype": "float32"}, {"name": "StatefulPartitionedCall/model_1/bidirectional_8/forward_lstm_8/strided_slice/stack", "shape": [1], "dtype": "int32"}, {"name": "StatefulPartitionedCall/model_1/bidirectional_8/forward_lstm_8/strided_slice/stack_1", "shape": [1], "dtype": "int32"}, {"name": "StatefulPartitionedCall/model_1/bidirectional_8/forward_lstm_8/strided_slice/stack_2", "shape": [1], "dtype": "int32"}, {"name": "StatefulPartitionedCall/model_1/bidirectional_8/forward_lstm_8/zeros/packed/1", "shape": [], "dtype": "int32"}, {"name": "StatefulPartitionedCall/model_1/bidirectional_8/forward_lstm_8/zeros/Const", "shape": [], "dtype": "float32"}, {"name": "StatefulPartitionedCall/model_1/bidirectional_8/forward_lstm_8/Read_1/ReadVariableOp", "shape": [128, 512], "dtype": "float32"}, {"name": "StatefulPartitionedCall/model_1/bidirectional_8/forward_lstm_8/Read_2/ReadVariableOp", "shape": [512], "dtype": "float32"}, {"name": "StatefulPartitionedCall/model_1/bidirectional_8/forward_lstm_8/PartitionedCall/time", "shape": [], "dtype": "int32"}, {"name": "StatefulPartitionedCall/model_1/bidirectional_8/forward_lstm_8/PartitionedCall/transpose/perm", "shape": [3], "dtype": "int32"}, {"name": "StatefulPartitionedCall/model_1/bidirectional_8/forward_lstm_8/PartitionedCall/strided_slice/stack", "shape": [1], "dtype": "int32"}, {"name": "StatefulPartitionedCall/model_1/bidirectional_8/forward_lstm_8/PartitionedCall/strided_slice/stack_1", "shape": [1], "dtype": "int32"}, {"name": "StatefulPartitionedCall/model_1/bidirectional_8/forward_lstm_8/PartitionedCall/strided_slice/stack_2", "shape": [1], "dtype": "int32"}, {"name": "StatefulPartitionedCall/model_1/bidirectional_8/forward_lstm_8/PartitionedCall/while/loop_counter", "shape": [], "dtype": "int32"}, {"name": "StatefulPartitionedCall/model_1/bidirectional_8/forward_lstm_8/PartitionedCall/TensorArrayV2Stack/TensorListStack/element_shape", "shape": [2], "dtype": "int32"}, {"name": "StatefulPartitionedCall/model_1/bidirectional_8/forward_lstm_8/PartitionedCall/transpose_1/perm", "shape": [3], "dtype": "int32"}, {"name": "StatefulPartitionedCall/model_1/bidirectional_8/backward_lstm_8/PartitionedCall/TensorArrayV2_1/element_shape", "shape": [2], "dtype": "int32"}, {"name": "StatefulPartitionedCall/model_1/bidirectional_8/backward_lstm_8/zeros_1/packed/1", "shape": [], "dtype": "int32"}, {"name": "StatefulPartitionedCall/model_1/bidirectional_8/backward_lstm_8/zeros_1/Const", "shape": [], "dtype": "float32"}, {"name": "StatefulPartitionedCall/model_1/bidirectional_8/backward_lstm_8/PartitionedCall/ReverseV2/axis", "shape": [1], "dtype": "int32"}, {"name": "StatefulPartitionedCall/model_1/bidirectional_8/backward_lstm_8/PartitionedCall/TensorArrayUnstack/TensorListFromTensor/element_shape", "shape": [2], "dtype": "int32"}, {"name": "StatefulPartitionedCall/model_1/bidirectional_8/backward_lstm_8/Read/ReadVariableOp", "shape": [64, 512], "dtype": "float32"}, {"name": "StatefulPartitionedCall/model_1/bidirectional_8/backward_lstm_8/strided_slice/stack", "shape": [1], "dtype": "int32"}, {"name": "StatefulPartitionedCall/model_1/bidirectional_8/backward_lstm_8/strided_slice/stack_1", "shape": [1], "dtype": "int32"}, {"name": "StatefulPartitionedCall/model_1/bidirectional_8/backward_lstm_8/strided_slice/stack_2", "shape": [1], "dtype": "int32"}, {"name": "StatefulPartitionedCall/model_1/bidirectional_8/backward_lstm_8/zeros/packed/1", "shape": [], "dtype": "int32"}, {"name": "StatefulPartitionedCall/model_1/bidirectional_8/backward_lstm_8/zeros/Const", "shape": [], "dtype": "float32"}, {"name": "StatefulPartitionedCall/model_1/bidirectional_8/backward_lstm_8/Read_1/ReadVariableOp", "shape": [128, 512], "dtype": "float32"}, {"name": "StatefulPartitionedCall/model_1/bidirectional_8/backward_lstm_8/Read_2/ReadVariableOp", "shape": [512], "dtype": "float32"}, {"name": "StatefulPartitionedCall/model_1/bidirectional_8/backward_lstm_8/PartitionedCall/time", "shape": [], "dtype": "int32"}, {"name": "StatefulPartitionedCall/model_1/dense1/Tensordot/Const", "shape": [1], "dtype": "int32"}, {"name": "StatefulPartitionedCall/model_1/dense1/Tensordot/axes", "shape": [1], "dtype": "int32"}, {"name": "StatefulPartitionedCall/model_1/dense1/Tensordot/GatherV2_1/axis", "shape": [], "dtype": "int32"}, {"name": "StatefulPartitionedCall/model_1/dense1/Tensordot/Const_1", "shape": [1], "dtype": "int32"}, {"name": "StatefulPartitionedCall/model_1/dense1/Tensordot/ReadVariableOp", "shape": [1152, 64], "dtype": "float32"}, {"name": "StatefulPartitionedCall/model_1/Conv1/Conv2D/ReadVariableOp", "shape": [3, 3, 1, 32], "dtype": "float32"}, {"name": "StatefulPartitionedCall/model_1/Conv1/BiasAdd/ReadVariableOp", "shape": [32], "dtype": "float32"}, {"name": "StatefulPartitionedCall/model_1/Conv2/Conv2D/ReadVariableOp", "shape": [3, 3, 32, 64], "dtype": "float32"}, {"name": "StatefulPartitionedCall/model_1/Conv2/BiasAdd/ReadVariableOp", "shape": [64], "dtype": "float32"}, {"name": "StatefulPartitionedCall/model_1/reshape/strided_slice/stack", "shape": [1], "dtype": "int32"}, {"name": "StatefulPartitionedCall/model_1/reshape/strided_slice/stack_1", "shape": [1], "dtype": "int32"}, {"name": "StatefulPartitionedCall/model_1/reshape/strided_slice/stack_2", "shape": [1], "dtype": "int32"}, {"name": "StatefulPartitionedCall/model_1/reshape/Reshape/shape/1", "shape": [], "dtype": "int32"}, {"name": "StatefulPartitionedCall/model_1/reshape/Reshape/shape/2", "shape": [], "dtype": "int32"}, {"name": "StatefulPartitionedCall/model_1/dense1/Tensordot/free", "shape": [2], "dtype": "int32"}, {"name": "StatefulPartitionedCall/model_1/dense1/Tensordot/GatherV2/axis", "shape": [], "dtype": "int32"}, {"name": "StatefulPartitionedCall/model_1/dense1/Tensordot/Const_2", "shape": [1], "dtype": "int32"}, {"name": "StatefulPartitionedCall/model_1/dense1/Tensordot/concat_1/axis", "shape": [], "dtype": "int32"}, {"name": "StatefulPartitionedCall/model_1/dense1/BiasAdd/ReadVariableOp", "shape": [64], "dtype": "float32"}, {"name": "StatefulPartitionedCall/model_1/bidirectional_8/backward_lstm_8/PartitionedCall/transpose/perm", "shape": [3], "dtype": "int32"}, {"name": "StatefulPartitionedCall/model_1/bidirectional_8/backward_lstm_8/PartitionedCall/strided_slice/stack", "shape": [1], "dtype": "int32"}, {"name": "StatefulPartitionedCall/model_1/bidirectional_8/backward_lstm_8/PartitionedCall/strided_slice/stack_1", "shape": [1], "dtype": "int32"}, {"name": "StatefulPartitionedCall/model_1/bidirectional_8/backward_lstm_8/PartitionedCall/strided_slice/stack_2", "shape": [1], "dtype": "int32"}, {"name": "StatefulPartitionedCall/model_1/bidirectional_8/backward_lstm_8/PartitionedCall/while/loop_counter", "shape": [], "dtype": "int32"}, {"name": "StatefulPartitionedCall/model_1/bidirectional_8/backward_lstm_8/PartitionedCall/TensorArrayV2Stack/TensorListStack/element_shape", "shape": [2], "dtype": "int32"}, {"name": "StatefulPartitionedCall/model_1/bidirectional_8/backward_lstm_8/PartitionedCall/transpose_1/perm", "shape": [3], "dtype": "int32"}, {"name": "StatefulPartitionedCall/model_1/bidirectional_8/ReverseV2/axis", "shape": [1], "dtype": "int32"}, {"name": "StatefulPartitionedCall/model_1/bidirectional_8/concat/axis", "shape": [], "dtype": "int32"}, {"name": "StatefulPartitionedCall/model_1/bidirectional_9/backward_lstm_9/PartitionedCall/transpose/perm", "shape": [3], "dtype": "int32"}, {"name": "StatefulPartitionedCall/model_1/bidirectional_9/backward_lstm_9/PartitionedCall/strided_slice/stack", "shape": [1], "dtype": "int32"}, {"name": "StatefulPartitionedCall/model_1/bidirectional_9/backward_lstm_9/PartitionedCall/strided_slice/stack_1", "shape": [1], "dtype": "int32"}, {"name": "StatefulPartitionedCall/model_1/bidirectional_9/backward_lstm_9/PartitionedCall/strided_slice/stack_2", "shape": [1], "dtype": "int32"}, {"name": "StatefulPartitionedCall/model_1/bidirectional_9/backward_lstm_9/PartitionedCall/while/loop_counter", "shape": [], "dtype": "int32"}, {"name": "StatefulPartitionedCall/model_1/bidirectional_9/backward_lstm_9/PartitionedCall/TensorArrayV2Stack/TensorListStack/element_shape", "shape": [2], "dtype": "int32"}, {"name": "StatefulPartitionedCall/model_1/bidirectional_9/backward_lstm_9/PartitionedCall/transpose_1/perm", "shape": [3], "dtype": "int32"}, {"name": "StatefulPartitionedCall/model_1/bidirectional_9/ReverseV2/axis", "shape": [1], "dtype": "int32"}, {"name": "StatefulPartitionedCall/model_1/bidirectional_9/concat/axis", "shape": [], "dtype": "int32"}, {"name": "StatefulPartitionedCall/model_1/dense2/Tensordot/free", "shape": [2], "dtype": "int32"}, {"name": "StatefulPartitionedCall/model_1/dense2/Tensordot/GatherV2/axis", "shape": [], "dtype": "int32"}, {"name": "StatefulPartitionedCall/model_1/dense2/Tensordot/Const_2", "shape": [1], "dtype": "int32"}, {"name": "StatefulPartitionedCall/model_1/dense2/Tensordot/concat_1/axis", "shape": [], "dtype": "int32"}, {"name": "StatefulPartitionedCall/model_1/dense2/BiasAdd/ReadVariableOp", "shape": [24], "dtype": "float32"}, {"name": "StatefulPartitionedCall/model_1/bidirectional_8/forward_lstm_8/PartitionedCall/while/body/_68/while/split/split_dim", "shape": [], "dtype": "int32"}, {"name": "StatefulPartitionedCall/model_1/bidirectional_8/forward_lstm_8/PartitionedCall/while/body/_68/while/TensorArrayV2Read/TensorListGetItem/element_shape", "shape": [2], "dtype": "int32"}, {"name": "StatefulPartitionedCall/model_1/bidirectional_8/forward_lstm_8/PartitionedCall/while/body/_68/while/add_2/y", "shape": [], "dtype": "int32"}, {"name": "StatefulPartitionedCall/model_1/bidirectional_8/forward_lstm_8/PartitionedCall/while/body/_68/while/add_3/y", "shape": [], "dtype": "int32"}, {"name": "StatefulPartitionedCall/model_1/bidirectional_8/backward_lstm_8/PartitionedCall/while/body/_128/while/split/split_dim", "shape": [], "dtype": "int32"}, {"name": "StatefulPartitionedCall/model_1/bidirectional_8/backward_lstm_8/PartitionedCall/while/body/_128/while/TensorArrayV2Read/TensorListGetItem/element_shape", "shape": [2], "dtype": "int32"}, {"name": "StatefulPartitionedCall/model_1/bidirectional_8/backward_lstm_8/PartitionedCall/while/body/_128/while/add_2/y", "shape": [], "dtype": "int32"}, {"name": "StatefulPartitionedCall/model_1/bidirectional_8/backward_lstm_8/PartitionedCall/while/body/_128/while/add_3/y", "shape": [], "dtype": "int32"}, {"name": "StatefulPartitionedCall/model_1/bidirectional_9/forward_lstm_9/PartitionedCall/while/body/_188/while/split/split_dim", "shape": [], "dtype": "int32"}, {"name": "StatefulPartitionedCall/model_1/bidirectional_9/forward_lstm_9/PartitionedCall/while/body/_188/while/TensorArrayV2Read/TensorListGetItem/element_shape", "shape": [2], "dtype": "int32"}, {"name": "StatefulPartitionedCall/model_1/bidirectional_9/forward_lstm_9/PartitionedCall/while/body/_188/while/add_2/y", "shape": [], "dtype": "int32"}, {"name": "StatefulPartitionedCall/model_1/bidirectional_9/forward_lstm_9/PartitionedCall/while/body/_188/while/add_3/y", "shape": [], "dtype": "int32"}, {"name": "StatefulPartitionedCall/model_1/bidirectional_9/backward_lstm_9/PartitionedCall/while/body/_248/while/split/split_dim", "shape": [], "dtype": "int32"}, {"name": "StatefulPartitionedCall/model_1/bidirectional_9/backward_lstm_9/PartitionedCall/while/body/_248/while/TensorArrayV2Read/TensorListGetItem/element_shape", "shape": [2], "dtype": "int32"}, {"name": "StatefulPartitionedCall/model_1/bidirectional_9/backward_lstm_9/PartitionedCall/while/body/_248/while/add_2/y", "shape": [], "dtype": "int32"}, {"name": "StatefulPartitionedCall/model_1/bidirectional_9/backward_lstm_9/PartitionedCall/while/body/_248/while/add_3/y", "shape": [], "dtype": "int32"}]}]}